{"format": "layers-model", "generatedBy": "keras v2.8.0", "convertedBy": "TensorFlow.js Converter v3.15.0", "modelTopology": {"keras_version": "2.8.0", "backend": "tensorflow", "model_config": {"class_name": "Functional", "config": {"name": "model_6", "layers": [{"class_name": "InputLayer", "config": {"batch_input_shape": [null, 150, 150, 3], "dtype": "float32", "sparse": false, "ragged": false, "name": "input_7"}, "name": "input_7", "inbound_nodes": []}, {"class_name": "Conv2D", "config": {"name": "conv2d_564", "trainable": false, "dtype": "float32", "filters": 32, "kernel_size": [3, 3], "strides": [2, 2], "padding": "valid", "data_format": "channels_last", "dilation_rate": [1, 1], "groups": 1, "activation": "linear", "use_bias": false, "kernel_initializer": {"class_name": "GlorotUniform", "config": {"seed": null}}, "bias_initializer": {"class_name": "Zeros", "config": {}}, "kernel_regularizer": null, "bias_regularizer": null, "activity_regularizer": null, "kernel_constraint": null, "bias_constraint": null}, "name": "conv2d_564", "inbound_nodes": [[["input_7", 0, 0, {}]]]}, {"class_name": "BatchNormalization", "config": {"name": "batch_normalization_564", "trainable": false, "dtype": "float32", "axis": [3], "momentum": 0.99, "epsilon": 0.001, "center": true, "scale": false, "beta_initializer": {"class_name": "Zeros", "config": {}}, "gamma_initializer": {"class_name": "Ones", "config": {}}, "moving_mean_initializer": {"class_name": "Zeros", "config": {}}, "moving_variance_initializer": {"class_name": "Ones", "config": {}}, "beta_regularizer": null, "gamma_regularizer": null, "beta_constraint": null, "gamma_constraint": null}, "name": "batch_normalization_564", "inbound_nodes": [[["conv2d_564", 0, 0, {}]]]}, {"class_name": "Activation", "config": {"name": "activation_564", "trainable": false, "dtype": "float32", "activation": "relu"}, "name": "activation_564", "inbound_nodes": [[["batch_normalization_564", 0, 0, {}]]]}, {"class_name": "Conv2D", "config": {"name": "conv2d_565", "trainable": false, "dtype": "float32", "filters": 32, "kernel_size": [3, 3], "strides": [1, 1], "padding": "valid", "data_format": "channels_last", "dilation_rate": [1, 1], "groups": 1, "activation": "linear", "use_bias": false, "kernel_initializer": {"class_name": "GlorotUniform", "config": {"seed": null}}, "bias_initializer": {"class_name": "Zeros", "config": {}}, "kernel_regularizer": null, "bias_regularizer": null, "activity_regularizer": null, "kernel_constraint": null, "bias_constraint": null}, "name": "conv2d_565", "inbound_nodes": [[["activation_564", 0, 0, {}]]]}, {"class_name": "BatchNormalization", "config": {"name": "batch_normalization_565", "trainable": false, "dtype": "float32", "axis": [3], "momentum": 0.99, "epsilon": 0.001, "center": true, "scale": false, "beta_initializer": {"class_name": "Zeros", "config": {}}, "gamma_initializer": {"class_name": "Ones", "config": {}}, "moving_mean_initializer": {"class_name": "Zeros", "config": {}}, "moving_variance_initializer": {"class_name": "Ones", "config": {}}, "beta_regularizer": null, "gamma_regularizer": null, "beta_constraint": null, "gamma_constraint": null}, "name": "batch_normalization_565", "inbound_nodes": [[["conv2d_565", 0, 0, {}]]]}, {"class_name": "Activation", "config": {"name": "activation_565", "trainable": false, "dtype": "float32", "activation": "relu"}, "name": "activation_565", "inbound_nodes": [[["batch_normalization_565", 0, 0, {}]]]}, {"class_name": "Conv2D", "config": {"name": "conv2d_566", "trainable": false, "dtype": "float32", "filters": 64, "kernel_size": [3, 3], "strides": [1, 1], "padding": "same", "data_format": "channels_last", "dilation_rate": [1, 1], "groups": 1, "activation": "linear", "use_bias": false, "kernel_initializer": {"class_name": "GlorotUniform", "config": {"seed": null}}, "bias_initializer": {"class_name": "Zeros", "config": {}}, "kernel_regularizer": null, "bias_regularizer": null, "activity_regularizer": null, "kernel_constraint": null, "bias_constraint": null}, "name": "conv2d_566", "inbound_nodes": [[["activation_565", 0, 0, {}]]]}, {"class_name": "BatchNormalization", "config": {"name": "batch_normalization_566", "trainable": false, "dtype": "float32", "axis": [3], "momentum": 0.99, "epsilon": 0.001, "center": true, "scale": false, "beta_initializer": {"class_name": "Zeros", "config": {}}, "gamma_initializer": {"class_name": "Ones", "config": {}}, "moving_mean_initializer": {"class_name": "Zeros", "config": {}}, "moving_variance_initializer": {"class_name": "Ones", "config": {}}, "beta_regularizer": null, "gamma_regularizer": null, "beta_constraint": null, "gamma_constraint": null}, "name": "batch_normalization_566", "inbound_nodes": [[["conv2d_566", 0, 0, {}]]]}, {"class_name": "Activation", "config": {"name": "activation_566", "trainable": false, "dtype": "float32", "activation": "relu"}, "name": "activation_566", "inbound_nodes": [[["batch_normalization_566", 0, 0, {}]]]}, {"class_name": "MaxPooling2D", "config": {"name": "max_pooling2d_24", "trainable": false, "dtype": "float32", "pool_size": [3, 3], "padding": "valid", "strides": [2, 2], "data_format": "channels_last"}, "name": "max_pooling2d_24", "inbound_nodes": [[["activation_566", 0, 0, {}]]]}, {"class_name": "Conv2D", "config": {"name": "conv2d_567", "trainable": false, "dtype": "float32", "filters": 80, "kernel_size": [1, 1], "strides": [1, 1], "padding": "valid", "data_format": "channels_last", "dilation_rate": [1, 1], "groups": 1, "activation": "linear", "use_bias": false, "kernel_initializer": {"class_name": "GlorotUniform", "config": {"seed": null}}, "bias_initializer": {"class_name": "Zeros", "config": {}}, "kernel_regularizer": null, "bias_regularizer": null, "activity_regularizer": null, "kernel_constraint": null, "bias_constraint": null}, "name": "conv2d_567", "inbound_nodes": [[["max_pooling2d_24", 0, 0, {}]]]}, {"class_name": "BatchNormalization", "config": {"name": "batch_normalization_567", "trainable": false, "dtype": "float32", "axis": [3], "momentum": 0.99, "epsilon": 0.001, "center": true, "scale": false, "beta_initializer": {"class_name": "Zeros", "config": {}}, "gamma_initializer": {"class_name": "Ones", "config": {}}, "moving_mean_initializer": {"class_name": "Zeros", "config": {}}, "moving_variance_initializer": {"class_name": "Ones", "config": {}}, "beta_regularizer": null, "gamma_regularizer": null, "beta_constraint": null, "gamma_constraint": null}, "name": "batch_normalization_567", "inbound_nodes": [[["conv2d_567", 0, 0, {}]]]}, {"class_name": "Activation", "config": {"name": "activation_567", "trainable": false, "dtype": "float32", "activation": "relu"}, "name": "activation_567", "inbound_nodes": [[["batch_normalization_567", 0, 0, {}]]]}, {"class_name": "Conv2D", "config": {"name": "conv2d_568", "trainable": false, "dtype": "float32", "filters": 192, "kernel_size": [3, 3], "strides": [1, 1], "padding": "valid", "data_format": "channels_last", "dilation_rate": [1, 1], "groups": 1, "activation": "linear", "use_bias": false, "kernel_initializer": {"class_name": "GlorotUniform", "config": {"seed": null}}, "bias_initializer": {"class_name": "Zeros", "config": {}}, "kernel_regularizer": null, "bias_regularizer": null, "activity_regularizer": null, "kernel_constraint": null, "bias_constraint": null}, "name": "conv2d_568", "inbound_nodes": [[["activation_567", 0, 0, {}]]]}, {"class_name": "BatchNormalization", "config": {"name": "batch_normalization_568", "trainable": false, "dtype": "float32", "axis": [3], "momentum": 0.99, "epsilon": 0.001, "center": true, "scale": false, "beta_initializer": {"class_name": "Zeros", "config": {}}, "gamma_initializer": {"class_name": "Ones", "config": {}}, "moving_mean_initializer": {"class_name": "Zeros", "config": {}}, "moving_variance_initializer": {"class_name": "Ones", "config": {}}, "beta_regularizer": null, "gamma_regularizer": null, "beta_constraint": null, "gamma_constraint": null}, "name": "batch_normalization_568", "inbound_nodes": [[["conv2d_568", 0, 0, {}]]]}, {"class_name": "Activation", "config": {"name": "activation_568", "trainable": false, "dtype": "float32", "activation": "relu"}, "name": "activation_568", "inbound_nodes": [[["batch_normalization_568", 0, 0, {}]]]}, {"class_name": "MaxPooling2D", "config": {"name": "max_pooling2d_25", "trainable": false, "dtype": "float32", "pool_size": [3, 3], "padding": "valid", "strides": [2, 2], "data_format": "channels_last"}, "name": "max_pooling2d_25", "inbound_nodes": [[["activation_568", 0, 0, {}]]]}, {"class_name": "Conv2D", "config": {"name": "conv2d_572", "trainable": false, "dtype": "float32", "filters": 64, "kernel_size": [1, 1], "strides": [1, 1], "padding": "same", "data_format": "channels_last", "dilation_rate": [1, 1], "groups": 1, "activation": "linear", "use_bias": false, "kernel_initializer": {"class_name": "GlorotUniform", "config": {"seed": null}}, "bias_initializer": {"class_name": "Zeros", "config": {}}, "kernel_regularizer": null, "bias_regularizer": null, "activity_regularizer": null, "kernel_constraint": null, "bias_constraint": null}, "name": "conv2d_572", "inbound_nodes": [[["max_pooling2d_25", 0, 0, {}]]]}, {"class_name": "BatchNormalization", "config": {"name": "batch_normalization_572", "trainable": false, "dtype": "float32", "axis": [3], "momentum": 0.99, "epsilon": 0.001, "center": true, "scale": false, "beta_initializer": {"class_name": "Zeros", "config": {}}, "gamma_initializer": {"class_name": "Ones", "config": {}}, "moving_mean_initializer": {"class_name": "Zeros", "config": {}}, "moving_variance_initializer": {"class_name": "Ones", "config": {}}, "beta_regularizer": null, "gamma_regularizer": null, "beta_constraint": null, "gamma_constraint": null}, "name": "batch_normalization_572", "inbound_nodes": [[["conv2d_572", 0, 0, {}]]]}, {"class_name": "Activation", "config": {"name": "activation_572", "trainable": false, "dtype": "float32", "activation": "relu"}, "name": "activation_572", "inbound_nodes": [[["batch_normalization_572", 0, 0, {}]]]}, {"class_name": "Conv2D", "config": {"name": "conv2d_570", "trainable": false, "dtype": "float32", "filters": 48, "kernel_size": [1, 1], "strides": [1, 1], "padding": "same", "data_format": "channels_last", "dilation_rate": [1, 1], "groups": 1, "activation": "linear", "use_bias": false, "kernel_initializer": {"class_name": "GlorotUniform", "config": {"seed": null}}, "bias_initializer": {"class_name": "Zeros", "config": {}}, "kernel_regularizer": null, "bias_regularizer": null, "activity_regularizer": null, "kernel_constraint": null, "bias_constraint": null}, "name": "conv2d_570", "inbound_nodes": [[["max_pooling2d_25", 0, 0, {}]]]}, {"class_name": "Conv2D", "config": {"name": "conv2d_573", "trainable": false, "dtype": "float32", "filters": 96, "kernel_size": [3, 3], "strides": [1, 1], "padding": "same", "data_format": "channels_last", "dilation_rate": [1, 1], "groups": 1, "activation": "linear", "use_bias": false, "kernel_initializer": {"class_name": "GlorotUniform", "config": {"seed": null}}, "bias_initializer": {"class_name": "Zeros", "config": {}}, "kernel_regularizer": null, "bias_regularizer": null, "activity_regularizer": null, "kernel_constraint": null, "bias_constraint": null}, "name": "conv2d_573", "inbound_nodes": [[["activation_572", 0, 0, {}]]]}, {"class_name": "BatchNormalization", "config": {"name": "batch_normalization_570", "trainable": false, "dtype": "float32", "axis": [3], "momentum": 0.99, "epsilon": 0.001, "center": true, "scale": false, "beta_initializer": {"class_name": "Zeros", "config": {}}, "gamma_initializer": {"class_name": "Ones", "config": {}}, "moving_mean_initializer": {"class_name": "Zeros", "config": {}}, "moving_variance_initializer": {"class_name": "Ones", "config": {}}, "beta_regularizer": null, "gamma_regularizer": null, "beta_constraint": null, "gamma_constraint": null}, "name": "batch_normalization_570", "inbound_nodes": [[["conv2d_570", 0, 0, {}]]]}, {"class_name": "BatchNormalization", "config": {"name": "batch_normalization_573", "trainable": false, "dtype": "float32", "axis": [3], "momentum": 0.99, "epsilon": 0.001, "center": true, "scale": false, "beta_initializer": {"class_name": "Zeros", "config": {}}, "gamma_initializer": {"class_name": "Ones", "config": {}}, "moving_mean_initializer": {"class_name": "Zeros", "config": {}}, "moving_variance_initializer": {"class_name": "Ones", "config": {}}, "beta_regularizer": null, "gamma_regularizer": null, "beta_constraint": null, "gamma_constraint": null}, "name": "batch_normalization_573", "inbound_nodes": [[["conv2d_573", 0, 0, {}]]]}, {"class_name": "Activation", "config": {"name": "activation_570", "trainable": false, "dtype": "float32", "activation": "relu"}, "name": "activation_570", "inbound_nodes": [[["batch_normalization_570", 0, 0, {}]]]}, {"class_name": "Activation", "config": {"name": "activation_573", "trainable": false, "dtype": "float32", "activation": "relu"}, "name": "activation_573", "inbound_nodes": [[["batch_normalization_573", 0, 0, {}]]]}, {"class_name": "AveragePooling2D", "config": {"name": "average_pooling2d_54", "trainable": false, "dtype": "float32", "pool_size": [3, 3], "padding": "same", "strides": [1, 1], "data_format": "channels_last"}, "name": "average_pooling2d_54", "inbound_nodes": [[["max_pooling2d_25", 0, 0, {}]]]}, {"class_name": "Conv2D", "config": {"name": "conv2d_569", "trainable": false, "dtype": "float32", "filters": 64, "kernel_size": [1, 1], "strides": [1, 1], "padding": "same", "data_format": "channels_last", "dilation_rate": [1, 1], "groups": 1, "activation": "linear", "use_bias": false, "kernel_initializer": {"class_name": "GlorotUniform", "config": {"seed": null}}, "bias_initializer": {"class_name": "Zeros", "config": {}}, "kernel_regularizer": null, "bias_regularizer": null, "activity_regularizer": null, "kernel_constraint": null, "bias_constraint": null}, "name": "conv2d_569", "inbound_nodes": [[["max_pooling2d_25", 0, 0, {}]]]}, {"class_name": "Conv2D", "config": {"name": "conv2d_571", "trainable": false, "dtype": "float32", "filters": 64, "kernel_size": [5, 5], "strides": [1, 1], "padding": "same", "data_format": "channels_last", "dilation_rate": [1, 1], "groups": 1, "activation": "linear", "use_bias": false, "kernel_initializer": {"class_name": "GlorotUniform", "config": {"seed": null}}, "bias_initializer": {"class_name": "Zeros", "config": {}}, "kernel_regularizer": null, "bias_regularizer": null, "activity_regularizer": null, "kernel_constraint": null, "bias_constraint": null}, "name": "conv2d_571", "inbound_nodes": [[["activation_570", 0, 0, {}]]]}, {"class_name": "Conv2D", "config": {"name": "conv2d_574", "trainable": false, "dtype": "float32", "filters": 96, "kernel_size": [3, 3], "strides": [1, 1], "padding": "same", "data_format": "channels_last", "dilation_rate": [1, 1], "groups": 1, "activation": "linear", "use_bias": false, "kernel_initializer": {"class_name": "GlorotUniform", "config": {"seed": null}}, "bias_initializer": {"class_name": "Zeros", "config": {}}, "kernel_regularizer": null, "bias_regularizer": null, "activity_regularizer": null, "kernel_constraint": null, "bias_constraint": null}, "name": "conv2d_574", "inbound_nodes": [[["activation_573", 0, 0, {}]]]}, {"class_name": "Conv2D", "config": {"name": "conv2d_575", "trainable": false, "dtype": "float32", "filters": 32, "kernel_size": [1, 1], "strides": [1, 1], "padding": "same", "data_format": "channels_last", "dilation_rate": [1, 1], "groups": 1, "activation": "linear", "use_bias": false, "kernel_initializer": {"class_name": "GlorotUniform", "config": {"seed": null}}, "bias_initializer": {"class_name": "Zeros", "config": {}}, "kernel_regularizer": null, "bias_regularizer": null, "activity_regularizer": null, "kernel_constraint": null, "bias_constraint": null}, "name": "conv2d_575", "inbound_nodes": [[["average_pooling2d_54", 0, 0, {}]]]}, {"class_name": "BatchNormalization", "config": {"name": "batch_normalization_569", "trainable": false, "dtype": "float32", "axis": [3], "momentum": 0.99, "epsilon": 0.001, "center": true, "scale": false, "beta_initializer": {"class_name": "Zeros", "config": {}}, "gamma_initializer": {"class_name": "Ones", "config": {}}, "moving_mean_initializer": {"class_name": "Zeros", "config": {}}, "moving_variance_initializer": {"class_name": "Ones", "config": {}}, "beta_regularizer": null, "gamma_regularizer": null, "beta_constraint": null, "gamma_constraint": null}, "name": "batch_normalization_569", "inbound_nodes": [[["conv2d_569", 0, 0, {}]]]}, {"class_name": "BatchNormalization", "config": {"name": "batch_normalization_571", "trainable": false, "dtype": "float32", "axis": [3], "momentum": 0.99, "epsilon": 0.001, "center": true, "scale": false, "beta_initializer": {"class_name": "Zeros", "config": {}}, "gamma_initializer": {"class_name": "Ones", "config": {}}, "moving_mean_initializer": {"class_name": "Zeros", "config": {}}, "moving_variance_initializer": {"class_name": "Ones", "config": {}}, "beta_regularizer": null, "gamma_regularizer": null, "beta_constraint": null, "gamma_constraint": null}, "name": "batch_normalization_571", "inbound_nodes": [[["conv2d_571", 0, 0, {}]]]}, {"class_name": "BatchNormalization", "config": {"name": "batch_normalization_574", "trainable": false, "dtype": "float32", "axis": [3], "momentum": 0.99, "epsilon": 0.001, "center": true, "scale": false, "beta_initializer": {"class_name": "Zeros", "config": {}}, "gamma_initializer": {"class_name": "Ones", "config": {}}, "moving_mean_initializer": {"class_name": "Zeros", "config": {}}, "moving_variance_initializer": {"class_name": "Ones", "config": {}}, "beta_regularizer": null, "gamma_regularizer": null, "beta_constraint": null, "gamma_constraint": null}, "name": "batch_normalization_574", "inbound_nodes": [[["conv2d_574", 0, 0, {}]]]}, {"class_name": "BatchNormalization", "config": {"name": "batch_normalization_575", "trainable": false, "dtype": "float32", "axis": [3], "momentum": 0.99, "epsilon": 0.001, "center": true, "scale": false, "beta_initializer": {"class_name": "Zeros", "config": {}}, "gamma_initializer": {"class_name": "Ones", "config": {}}, "moving_mean_initializer": {"class_name": "Zeros", "config": {}}, "moving_variance_initializer": {"class_name": "Ones", "config": {}}, "beta_regularizer": null, "gamma_regularizer": null, "beta_constraint": null, "gamma_constraint": null}, "name": "batch_normalization_575", "inbound_nodes": [[["conv2d_575", 0, 0, {}]]]}, {"class_name": "Activation", "config": {"name": "activation_569", "trainable": false, "dtype": "float32", "activation": "relu"}, "name": "activation_569", "inbound_nodes": [[["batch_normalization_569", 0, 0, {}]]]}, {"class_name": "Activation", "config": {"name": "activation_571", "trainable": false, "dtype": "float32", "activation": "relu"}, "name": "activation_571", "inbound_nodes": [[["batch_normalization_571", 0, 0, {}]]]}, {"class_name": "Activation", "config": {"name": "activation_574", "trainable": false, "dtype": "float32", "activation": "relu"}, "name": "activation_574", "inbound_nodes": [[["batch_normalization_574", 0, 0, {}]]]}, {"class_name": "Activation", "config": {"name": "activation_575", "trainable": false, "dtype": "float32", "activation": "relu"}, "name": "activation_575", "inbound_nodes": [[["batch_normalization_575", 0, 0, {}]]]}, {"class_name": "Concatenate", "config": {"name": "mixed0", "trainable": false, "dtype": "float32", "axis": 3}, "name": "mixed0", "inbound_nodes": [[["activation_569", 0, 0, {}], ["activation_571", 0, 0, {}], ["activation_574", 0, 0, {}], ["activation_575", 0, 0, {}]]]}, {"class_name": "Conv2D", "config": {"name": "conv2d_579", "trainable": false, "dtype": "float32", "filters": 64, "kernel_size": [1, 1], "strides": [1, 1], "padding": "same", "data_format": "channels_last", "dilation_rate": [1, 1], "groups": 1, "activation": "linear", "use_bias": false, "kernel_initializer": {"class_name": "GlorotUniform", "config": {"seed": null}}, "bias_initializer": {"class_name": "Zeros", "config": {}}, "kernel_regularizer": null, "bias_regularizer": null, "activity_regularizer": null, "kernel_constraint": null, "bias_constraint": null}, "name": "conv2d_579", "inbound_nodes": [[["mixed0", 0, 0, {}]]]}, {"class_name": "BatchNormalization", "config": {"name": "batch_normalization_579", "trainable": false, "dtype": "float32", "axis": [3], "momentum": 0.99, "epsilon": 0.001, "center": true, "scale": false, "beta_initializer": {"class_name": "Zeros", "config": {}}, "gamma_initializer": {"class_name": "Ones", "config": {}}, "moving_mean_initializer": {"class_name": "Zeros", "config": {}}, "moving_variance_initializer": {"class_name": "Ones", "config": {}}, "beta_regularizer": null, "gamma_regularizer": null, "beta_constraint": null, "gamma_constraint": null}, "name": "batch_normalization_579", "inbound_nodes": [[["conv2d_579", 0, 0, {}]]]}, {"class_name": "Activation", "config": {"name": "activation_579", "trainable": false, "dtype": "float32", "activation": "relu"}, "name": "activation_579", "inbound_nodes": [[["batch_normalization_579", 0, 0, {}]]]}, {"class_name": "Conv2D", "config": {"name": "conv2d_577", "trainable": false, "dtype": "float32", "filters": 48, "kernel_size": [1, 1], "strides": [1, 1], "padding": "same", "data_format": "channels_last", "dilation_rate": [1, 1], "groups": 1, "activation": "linear", "use_bias": false, "kernel_initializer": {"class_name": "GlorotUniform", "config": {"seed": null}}, "bias_initializer": {"class_name": "Zeros", "config": {}}, "kernel_regularizer": null, "bias_regularizer": null, "activity_regularizer": null, "kernel_constraint": null, "bias_constraint": null}, "name": "conv2d_577", "inbound_nodes": [[["mixed0", 0, 0, {}]]]}, {"class_name": "Conv2D", "config": {"name": "conv2d_580", "trainable": false, "dtype": "float32", "filters": 96, "kernel_size": [3, 3], "strides": [1, 1], "padding": "same", "data_format": "channels_last", "dilation_rate": [1, 1], "groups": 1, "activation": "linear", "use_bias": false, "kernel_initializer": {"class_name": "GlorotUniform", "config": {"seed": null}}, "bias_initializer": {"class_name": "Zeros", "config": {}}, "kernel_regularizer": null, "bias_regularizer": null, "activity_regularizer": null, "kernel_constraint": null, "bias_constraint": null}, "name": "conv2d_580", "inbound_nodes": [[["activation_579", 0, 0, {}]]]}, {"class_name": "BatchNormalization", "config": {"name": "batch_normalization_577", "trainable": false, "dtype": "float32", "axis": [3], "momentum": 0.99, "epsilon": 0.001, "center": true, "scale": false, "beta_initializer": {"class_name": "Zeros", "config": {}}, "gamma_initializer": {"class_name": "Ones", "config": {}}, "moving_mean_initializer": {"class_name": "Zeros", "config": {}}, "moving_variance_initializer": {"class_name": "Ones", "config": {}}, "beta_regularizer": null, "gamma_regularizer": null, "beta_constraint": null, "gamma_constraint": null}, "name": "batch_normalization_577", "inbound_nodes": [[["conv2d_577", 0, 0, {}]]]}, {"class_name": "BatchNormalization", "config": {"name": "batch_normalization_580", "trainable": false, "dtype": "float32", "axis": [3], "momentum": 0.99, "epsilon": 0.001, "center": true, "scale": false, "beta_initializer": {"class_name": "Zeros", "config": {}}, "gamma_initializer": {"class_name": "Ones", "config": {}}, "moving_mean_initializer": {"class_name": "Zeros", "config": {}}, "moving_variance_initializer": {"class_name": "Ones", "config": {}}, "beta_regularizer": null, "gamma_regularizer": null, "beta_constraint": null, "gamma_constraint": null}, "name": "batch_normalization_580", "inbound_nodes": [[["conv2d_580", 0, 0, {}]]]}, {"class_name": "Activation", "config": {"name": "activation_577", "trainable": false, "dtype": "float32", "activation": "relu"}, "name": "activation_577", "inbound_nodes": [[["batch_normalization_577", 0, 0, {}]]]}, {"class_name": "Activation", "config": {"name": "activation_580", "trainable": false, "dtype": "float32", "activation": "relu"}, "name": "activation_580", "inbound_nodes": [[["batch_normalization_580", 0, 0, {}]]]}, {"class_name": "AveragePooling2D", "config": {"name": "average_pooling2d_55", "trainable": false, "dtype": "float32", "pool_size": [3, 3], "padding": "same", "strides": [1, 1], "data_format": "channels_last"}, "name": "average_pooling2d_55", "inbound_nodes": [[["mixed0", 0, 0, {}]]]}, {"class_name": "Conv2D", "config": {"name": "conv2d_576", "trainable": false, "dtype": "float32", "filters": 64, "kernel_size": [1, 1], "strides": [1, 1], "padding": "same", "data_format": "channels_last", "dilation_rate": [1, 1], "groups": 1, "activation": "linear", "use_bias": false, "kernel_initializer": {"class_name": "GlorotUniform", "config": {"seed": null}}, "bias_initializer": {"class_name": "Zeros", "config": {}}, "kernel_regularizer": null, "bias_regularizer": null, "activity_regularizer": null, "kernel_constraint": null, "bias_constraint": null}, "name": "conv2d_576", "inbound_nodes": [[["mixed0", 0, 0, {}]]]}, {"class_name": "Conv2D", "config": {"name": "conv2d_578", "trainable": false, "dtype": "float32", "filters": 64, "kernel_size": [5, 5], "strides": [1, 1], "padding": "same", "data_format": "channels_last", "dilation_rate": [1, 1], "groups": 1, "activation": "linear", "use_bias": false, "kernel_initializer": {"class_name": "GlorotUniform", "config": {"seed": null}}, "bias_initializer": {"class_name": "Zeros", "config": {}}, "kernel_regularizer": null, "bias_regularizer": null, "activity_regularizer": null, "kernel_constraint": null, "bias_constraint": null}, "name": "conv2d_578", "inbound_nodes": [[["activation_577", 0, 0, {}]]]}, {"class_name": "Conv2D", "config": {"name": "conv2d_581", "trainable": false, "dtype": "float32", "filters": 96, "kernel_size": [3, 3], "strides": [1, 1], "padding": "same", "data_format": "channels_last", "dilation_rate": [1, 1], "groups": 1, "activation": "linear", "use_bias": false, "kernel_initializer": {"class_name": "GlorotUniform", "config": {"seed": null}}, "bias_initializer": {"class_name": "Zeros", "config": {}}, "kernel_regularizer": null, "bias_regularizer": null, "activity_regularizer": null, "kernel_constraint": null, "bias_constraint": null}, "name": "conv2d_581", "inbound_nodes": [[["activation_580", 0, 0, {}]]]}, {"class_name": "Conv2D", "config": {"name": "conv2d_582", "trainable": false, "dtype": "float32", "filters": 64, "kernel_size": [1, 1], "strides": [1, 1], "padding": "same", "data_format": "channels_last", "dilation_rate": [1, 1], "groups": 1, "activation": "linear", "use_bias": false, "kernel_initializer": {"class_name": "GlorotUniform", "config": {"seed": null}}, "bias_initializer": {"class_name": "Zeros", "config": {}}, "kernel_regularizer": null, "bias_regularizer": null, "activity_regularizer": null, "kernel_constraint": null, "bias_constraint": null}, "name": "conv2d_582", "inbound_nodes": [[["average_pooling2d_55", 0, 0, {}]]]}, {"class_name": "BatchNormalization", "config": {"name": "batch_normalization_576", "trainable": false, "dtype": "float32", "axis": [3], "momentum": 0.99, "epsilon": 0.001, "center": true, "scale": false, "beta_initializer": {"class_name": "Zeros", "config": {}}, "gamma_initializer": {"class_name": "Ones", "config": {}}, "moving_mean_initializer": {"class_name": "Zeros", "config": {}}, "moving_variance_initializer": {"class_name": "Ones", "config": {}}, "beta_regularizer": null, "gamma_regularizer": null, "beta_constraint": null, "gamma_constraint": null}, "name": "batch_normalization_576", "inbound_nodes": [[["conv2d_576", 0, 0, {}]]]}, {"class_name": "BatchNormalization", "config": {"name": "batch_normalization_578", "trainable": false, "dtype": "float32", "axis": [3], "momentum": 0.99, "epsilon": 0.001, "center": true, "scale": false, "beta_initializer": {"class_name": "Zeros", "config": {}}, "gamma_initializer": {"class_name": "Ones", "config": {}}, "moving_mean_initializer": {"class_name": "Zeros", "config": {}}, "moving_variance_initializer": {"class_name": "Ones", "config": {}}, "beta_regularizer": null, "gamma_regularizer": null, "beta_constraint": null, "gamma_constraint": null}, "name": "batch_normalization_578", "inbound_nodes": [[["conv2d_578", 0, 0, {}]]]}, {"class_name": "BatchNormalization", "config": {"name": "batch_normalization_581", "trainable": false, "dtype": "float32", "axis": [3], "momentum": 0.99, "epsilon": 0.001, "center": true, "scale": false, "beta_initializer": {"class_name": "Zeros", "config": {}}, "gamma_initializer": {"class_name": "Ones", "config": {}}, "moving_mean_initializer": {"class_name": "Zeros", "config": {}}, "moving_variance_initializer": {"class_name": "Ones", "config": {}}, "beta_regularizer": null, "gamma_regularizer": null, "beta_constraint": null, "gamma_constraint": null}, "name": "batch_normalization_581", "inbound_nodes": [[["conv2d_581", 0, 0, {}]]]}, {"class_name": "BatchNormalization", "config": {"name": "batch_normalization_582", "trainable": false, "dtype": "float32", "axis": [3], "momentum": 0.99, "epsilon": 0.001, "center": true, "scale": false, "beta_initializer": {"class_name": "Zeros", "config": {}}, "gamma_initializer": {"class_name": "Ones", "config": {}}, "moving_mean_initializer": {"class_name": "Zeros", "config": {}}, "moving_variance_initializer": {"class_name": "Ones", "config": {}}, "beta_regularizer": null, "gamma_regularizer": null, "beta_constraint": null, "gamma_constraint": null}, "name": "batch_normalization_582", "inbound_nodes": [[["conv2d_582", 0, 0, {}]]]}, {"class_name": "Activation", "config": {"name": "activation_576", "trainable": false, "dtype": "float32", "activation": "relu"}, "name": "activation_576", "inbound_nodes": [[["batch_normalization_576", 0, 0, {}]]]}, {"class_name": "Activation", "config": {"name": "activation_578", "trainable": false, "dtype": "float32", "activation": "relu"}, "name": "activation_578", "inbound_nodes": [[["batch_normalization_578", 0, 0, {}]]]}, {"class_name": "Activation", "config": {"name": "activation_581", "trainable": false, "dtype": "float32", "activation": "relu"}, "name": "activation_581", "inbound_nodes": [[["batch_normalization_581", 0, 0, {}]]]}, {"class_name": "Activation", "config": {"name": "activation_582", "trainable": false, "dtype": "float32", "activation": "relu"}, "name": "activation_582", "inbound_nodes": [[["batch_normalization_582", 0, 0, {}]]]}, {"class_name": "Concatenate", "config": {"name": "mixed1", "trainable": false, "dtype": "float32", "axis": 3}, "name": "mixed1", "inbound_nodes": [[["activation_576", 0, 0, {}], ["activation_578", 0, 0, {}], ["activation_581", 0, 0, {}], ["activation_582", 0, 0, {}]]]}, {"class_name": "Conv2D", "config": {"name": "conv2d_586", "trainable": false, "dtype": "float32", "filters": 64, "kernel_size": [1, 1], "strides": [1, 1], "padding": "same", "data_format": "channels_last", "dilation_rate": [1, 1], "groups": 1, "activation": "linear", "use_bias": false, "kernel_initializer": {"class_name": "GlorotUniform", "config": {"seed": null}}, "bias_initializer": {"class_name": "Zeros", "config": {}}, "kernel_regularizer": null, "bias_regularizer": null, "activity_regularizer": null, "kernel_constraint": null, "bias_constraint": null}, "name": "conv2d_586", "inbound_nodes": [[["mixed1", 0, 0, {}]]]}, {"class_name": "BatchNormalization", "config": {"name": "batch_normalization_586", "trainable": false, "dtype": "float32", "axis": [3], "momentum": 0.99, "epsilon": 0.001, "center": true, "scale": false, "beta_initializer": {"class_name": "Zeros", "config": {}}, "gamma_initializer": {"class_name": "Ones", "config": {}}, "moving_mean_initializer": {"class_name": "Zeros", "config": {}}, "moving_variance_initializer": {"class_name": "Ones", "config": {}}, "beta_regularizer": null, "gamma_regularizer": null, "beta_constraint": null, "gamma_constraint": null}, "name": "batch_normalization_586", "inbound_nodes": [[["conv2d_586", 0, 0, {}]]]}, {"class_name": "Activation", "config": {"name": "activation_586", "trainable": false, "dtype": "float32", "activation": "relu"}, "name": "activation_586", "inbound_nodes": [[["batch_normalization_586", 0, 0, {}]]]}, {"class_name": "Conv2D", "config": {"name": "conv2d_584", "trainable": false, "dtype": "float32", "filters": 48, "kernel_size": [1, 1], "strides": [1, 1], "padding": "same", "data_format": "channels_last", "dilation_rate": [1, 1], "groups": 1, "activation": "linear", "use_bias": false, "kernel_initializer": {"class_name": "GlorotUniform", "config": {"seed": null}}, "bias_initializer": {"class_name": "Zeros", "config": {}}, "kernel_regularizer": null, "bias_regularizer": null, "activity_regularizer": null, "kernel_constraint": null, "bias_constraint": null}, "name": "conv2d_584", "inbound_nodes": [[["mixed1", 0, 0, {}]]]}, {"class_name": "Conv2D", "config": {"name": "conv2d_587", "trainable": false, "dtype": "float32", "filters": 96, "kernel_size": [3, 3], "strides": [1, 1], "padding": "same", "data_format": "channels_last", "dilation_rate": [1, 1], "groups": 1, "activation": "linear", "use_bias": false, "kernel_initializer": {"class_name": "GlorotUniform", "config": {"seed": null}}, "bias_initializer": {"class_name": "Zeros", "config": {}}, "kernel_regularizer": null, "bias_regularizer": null, "activity_regularizer": null, "kernel_constraint": null, "bias_constraint": null}, "name": "conv2d_587", "inbound_nodes": [[["activation_586", 0, 0, {}]]]}, {"class_name": "BatchNormalization", "config": {"name": "batch_normalization_584", "trainable": false, "dtype": "float32", "axis": [3], "momentum": 0.99, "epsilon": 0.001, "center": true, "scale": false, "beta_initializer": {"class_name": "Zeros", "config": {}}, "gamma_initializer": {"class_name": "Ones", "config": {}}, "moving_mean_initializer": {"class_name": "Zeros", "config": {}}, "moving_variance_initializer": {"class_name": "Ones", "config": {}}, "beta_regularizer": null, "gamma_regularizer": null, "beta_constraint": null, "gamma_constraint": null}, "name": "batch_normalization_584", "inbound_nodes": [[["conv2d_584", 0, 0, {}]]]}, {"class_name": "BatchNormalization", "config": {"name": "batch_normalization_587", "trainable": false, "dtype": "float32", "axis": [3], "momentum": 0.99, "epsilon": 0.001, "center": true, "scale": false, "beta_initializer": {"class_name": "Zeros", "config": {}}, "gamma_initializer": {"class_name": "Ones", "config": {}}, "moving_mean_initializer": {"class_name": "Zeros", "config": {}}, "moving_variance_initializer": {"class_name": "Ones", "config": {}}, "beta_regularizer": null, "gamma_regularizer": null, "beta_constraint": null, "gamma_constraint": null}, "name": "batch_normalization_587", "inbound_nodes": [[["conv2d_587", 0, 0, {}]]]}, {"class_name": "Activation", "config": {"name": "activation_584", "trainable": false, "dtype": "float32", "activation": "relu"}, "name": "activation_584", "inbound_nodes": [[["batch_normalization_584", 0, 0, {}]]]}, {"class_name": "Activation", "config": {"name": "activation_587", "trainable": false, "dtype": "float32", "activation": "relu"}, "name": "activation_587", "inbound_nodes": [[["batch_normalization_587", 0, 0, {}]]]}, {"class_name": "AveragePooling2D", "config": {"name": "average_pooling2d_56", "trainable": false, "dtype": "float32", "pool_size": [3, 3], "padding": "same", "strides": [1, 1], "data_format": "channels_last"}, "name": "average_pooling2d_56", "inbound_nodes": [[["mixed1", 0, 0, {}]]]}, {"class_name": "Conv2D", "config": {"name": "conv2d_583", "trainable": false, "dtype": "float32", "filters": 64, "kernel_size": [1, 1], "strides": [1, 1], "padding": "same", "data_format": "channels_last", "dilation_rate": [1, 1], "groups": 1, "activation": "linear", "use_bias": false, "kernel_initializer": {"class_name": "GlorotUniform", "config": {"seed": null}}, "bias_initializer": {"class_name": "Zeros", "config": {}}, "kernel_regularizer": null, "bias_regularizer": null, "activity_regularizer": null, "kernel_constraint": null, "bias_constraint": null}, "name": "conv2d_583", "inbound_nodes": [[["mixed1", 0, 0, {}]]]}, {"class_name": "Conv2D", "config": {"name": "conv2d_585", "trainable": false, "dtype": "float32", "filters": 64, "kernel_size": [5, 5], "strides": [1, 1], "padding": "same", "data_format": "channels_last", "dilation_rate": [1, 1], "groups": 1, "activation": "linear", "use_bias": false, "kernel_initializer": {"class_name": "GlorotUniform", "config": {"seed": null}}, "bias_initializer": {"class_name": "Zeros", "config": {}}, "kernel_regularizer": null, "bias_regularizer": null, "activity_regularizer": null, "kernel_constraint": null, "bias_constraint": null}, "name": "conv2d_585", "inbound_nodes": [[["activation_584", 0, 0, {}]]]}, {"class_name": "Conv2D", "config": {"name": "conv2d_588", "trainable": false, "dtype": "float32", "filters": 96, "kernel_size": [3, 3], "strides": [1, 1], "padding": "same", "data_format": "channels_last", "dilation_rate": [1, 1], "groups": 1, "activation": "linear", "use_bias": false, "kernel_initializer": {"class_name": "GlorotUniform", "config": {"seed": null}}, "bias_initializer": {"class_name": "Zeros", "config": {}}, "kernel_regularizer": null, "bias_regularizer": null, "activity_regularizer": null, "kernel_constraint": null, "bias_constraint": null}, "name": "conv2d_588", "inbound_nodes": [[["activation_587", 0, 0, {}]]]}, {"class_name": "Conv2D", "config": {"name": "conv2d_589", "trainable": false, "dtype": "float32", "filters": 64, "kernel_size": [1, 1], "strides": [1, 1], "padding": "same", "data_format": "channels_last", "dilation_rate": [1, 1], "groups": 1, "activation": "linear", "use_bias": false, "kernel_initializer": {"class_name": "GlorotUniform", "config": {"seed": null}}, "bias_initializer": {"class_name": "Zeros", "config": {}}, "kernel_regularizer": null, "bias_regularizer": null, "activity_regularizer": null, "kernel_constraint": null, "bias_constraint": null}, "name": "conv2d_589", "inbound_nodes": [[["average_pooling2d_56", 0, 0, {}]]]}, {"class_name": "BatchNormalization", "config": {"name": "batch_normalization_583", "trainable": false, "dtype": "float32", "axis": [3], "momentum": 0.99, "epsilon": 0.001, "center": true, "scale": false, "beta_initializer": {"class_name": "Zeros", "config": {}}, "gamma_initializer": {"class_name": "Ones", "config": {}}, "moving_mean_initializer": {"class_name": "Zeros", "config": {}}, "moving_variance_initializer": {"class_name": "Ones", "config": {}}, "beta_regularizer": null, "gamma_regularizer": null, "beta_constraint": null, "gamma_constraint": null}, "name": "batch_normalization_583", "inbound_nodes": [[["conv2d_583", 0, 0, {}]]]}, {"class_name": "BatchNormalization", "config": {"name": "batch_normalization_585", "trainable": false, "dtype": "float32", "axis": [3], "momentum": 0.99, "epsilon": 0.001, "center": true, "scale": false, "beta_initializer": {"class_name": "Zeros", "config": {}}, "gamma_initializer": {"class_name": "Ones", "config": {}}, "moving_mean_initializer": {"class_name": "Zeros", "config": {}}, "moving_variance_initializer": {"class_name": "Ones", "config": {}}, "beta_regularizer": null, "gamma_regularizer": null, "beta_constraint": null, "gamma_constraint": null}, "name": "batch_normalization_585", "inbound_nodes": [[["conv2d_585", 0, 0, {}]]]}, {"class_name": "BatchNormalization", "config": {"name": "batch_normalization_588", "trainable": false, "dtype": "float32", "axis": [3], "momentum": 0.99, "epsilon": 0.001, "center": true, "scale": false, "beta_initializer": {"class_name": "Zeros", "config": {}}, "gamma_initializer": {"class_name": "Ones", "config": {}}, "moving_mean_initializer": {"class_name": "Zeros", "config": {}}, "moving_variance_initializer": {"class_name": "Ones", "config": {}}, "beta_regularizer": null, "gamma_regularizer": null, "beta_constraint": null, "gamma_constraint": null}, "name": "batch_normalization_588", "inbound_nodes": [[["conv2d_588", 0, 0, {}]]]}, {"class_name": "BatchNormalization", "config": {"name": "batch_normalization_589", "trainable": false, "dtype": "float32", "axis": [3], "momentum": 0.99, "epsilon": 0.001, "center": true, "scale": false, "beta_initializer": {"class_name": "Zeros", "config": {}}, "gamma_initializer": {"class_name": "Ones", "config": {}}, "moving_mean_initializer": {"class_name": "Zeros", "config": {}}, "moving_variance_initializer": {"class_name": "Ones", "config": {}}, "beta_regularizer": null, "gamma_regularizer": null, "beta_constraint": null, "gamma_constraint": null}, "name": "batch_normalization_589", "inbound_nodes": [[["conv2d_589", 0, 0, {}]]]}, {"class_name": "Activation", "config": {"name": "activation_583", "trainable": false, "dtype": "float32", "activation": "relu"}, "name": "activation_583", "inbound_nodes": [[["batch_normalization_583", 0, 0, {}]]]}, {"class_name": "Activation", "config": {"name": "activation_585", "trainable": false, "dtype": "float32", "activation": "relu"}, "name": "activation_585", "inbound_nodes": [[["batch_normalization_585", 0, 0, {}]]]}, {"class_name": "Activation", "config": {"name": "activation_588", "trainable": false, "dtype": "float32", "activation": "relu"}, "name": "activation_588", "inbound_nodes": [[["batch_normalization_588", 0, 0, {}]]]}, {"class_name": "Activation", "config": {"name": "activation_589", "trainable": false, "dtype": "float32", "activation": "relu"}, "name": "activation_589", "inbound_nodes": [[["batch_normalization_589", 0, 0, {}]]]}, {"class_name": "Concatenate", "config": {"name": "mixed2", "trainable": false, "dtype": "float32", "axis": 3}, "name": "mixed2", "inbound_nodes": [[["activation_583", 0, 0, {}], ["activation_585", 0, 0, {}], ["activation_588", 0, 0, {}], ["activation_589", 0, 0, {}]]]}, {"class_name": "Conv2D", "config": {"name": "conv2d_591", "trainable": false, "dtype": "float32", "filters": 64, "kernel_size": [1, 1], "strides": [1, 1], "padding": "same", "data_format": "channels_last", "dilation_rate": [1, 1], "groups": 1, "activation": "linear", "use_bias": false, "kernel_initializer": {"class_name": "GlorotUniform", "config": {"seed": null}}, "bias_initializer": {"class_name": "Zeros", "config": {}}, "kernel_regularizer": null, "bias_regularizer": null, "activity_regularizer": null, "kernel_constraint": null, "bias_constraint": null}, "name": "conv2d_591", "inbound_nodes": [[["mixed2", 0, 0, {}]]]}, {"class_name": "BatchNormalization", "config": {"name": "batch_normalization_591", "trainable": false, "dtype": "float32", "axis": [3], "momentum": 0.99, "epsilon": 0.001, "center": true, "scale": false, "beta_initializer": {"class_name": "Zeros", "config": {}}, "gamma_initializer": {"class_name": "Ones", "config": {}}, "moving_mean_initializer": {"class_name": "Zeros", "config": {}}, "moving_variance_initializer": {"class_name": "Ones", "config": {}}, "beta_regularizer": null, "gamma_regularizer": null, "beta_constraint": null, "gamma_constraint": null}, "name": "batch_normalization_591", "inbound_nodes": [[["conv2d_591", 0, 0, {}]]]}, {"class_name": "Activation", "config": {"name": "activation_591", "trainable": false, "dtype": "float32", "activation": "relu"}, "name": "activation_591", "inbound_nodes": [[["batch_normalization_591", 0, 0, {}]]]}, {"class_name": "Conv2D", "config": {"name": "conv2d_592", "trainable": false, "dtype": "float32", "filters": 96, "kernel_size": [3, 3], "strides": [1, 1], "padding": "same", "data_format": "channels_last", "dilation_rate": [1, 1], "groups": 1, "activation": "linear", "use_bias": false, "kernel_initializer": {"class_name": "GlorotUniform", "config": {"seed": null}}, "bias_initializer": {"class_name": "Zeros", "config": {}}, "kernel_regularizer": null, "bias_regularizer": null, "activity_regularizer": null, "kernel_constraint": null, "bias_constraint": null}, "name": "conv2d_592", "inbound_nodes": [[["activation_591", 0, 0, {}]]]}, {"class_name": "BatchNormalization", "config": {"name": "batch_normalization_592", "trainable": false, "dtype": "float32", "axis": [3], "momentum": 0.99, "epsilon": 0.001, "center": true, "scale": false, "beta_initializer": {"class_name": "Zeros", "config": {}}, "gamma_initializer": {"class_name": "Ones", "config": {}}, "moving_mean_initializer": {"class_name": "Zeros", "config": {}}, "moving_variance_initializer": {"class_name": "Ones", "config": {}}, "beta_regularizer": null, "gamma_regularizer": null, "beta_constraint": null, "gamma_constraint": null}, "name": "batch_normalization_592", "inbound_nodes": [[["conv2d_592", 0, 0, {}]]]}, {"class_name": "Activation", "config": {"name": "activation_592", "trainable": false, "dtype": "float32", "activation": "relu"}, "name": "activation_592", "inbound_nodes": [[["batch_normalization_592", 0, 0, {}]]]}, {"class_name": "Conv2D", "config": {"name": "conv2d_590", "trainable": false, "dtype": "float32", "filters": 384, "kernel_size": [3, 3], "strides": [2, 2], "padding": "valid", "data_format": "channels_last", "dilation_rate": [1, 1], "groups": 1, "activation": "linear", "use_bias": false, "kernel_initializer": {"class_name": "GlorotUniform", "config": {"seed": null}}, "bias_initializer": {"class_name": "Zeros", "config": {}}, "kernel_regularizer": null, "bias_regularizer": null, "activity_regularizer": null, "kernel_constraint": null, "bias_constraint": null}, "name": "conv2d_590", "inbound_nodes": [[["mixed2", 0, 0, {}]]]}, {"class_name": "Conv2D", "config": {"name": "conv2d_593", "trainable": false, "dtype": "float32", "filters": 96, "kernel_size": [3, 3], "strides": [2, 2], "padding": "valid", "data_format": "channels_last", "dilation_rate": [1, 1], "groups": 1, "activation": "linear", "use_bias": false, "kernel_initializer": {"class_name": "GlorotUniform", "config": {"seed": null}}, "bias_initializer": {"class_name": "Zeros", "config": {}}, "kernel_regularizer": null, "bias_regularizer": null, "activity_regularizer": null, "kernel_constraint": null, "bias_constraint": null}, "name": "conv2d_593", "inbound_nodes": [[["activation_592", 0, 0, {}]]]}, {"class_name": "BatchNormalization", "config": {"name": "batch_normalization_590", "trainable": false, "dtype": "float32", "axis": [3], "momentum": 0.99, "epsilon": 0.001, "center": true, "scale": false, "beta_initializer": {"class_name": "Zeros", "config": {}}, "gamma_initializer": {"class_name": "Ones", "config": {}}, "moving_mean_initializer": {"class_name": "Zeros", "config": {}}, "moving_variance_initializer": {"class_name": "Ones", "config": {}}, "beta_regularizer": null, "gamma_regularizer": null, "beta_constraint": null, "gamma_constraint": null}, "name": "batch_normalization_590", "inbound_nodes": [[["conv2d_590", 0, 0, {}]]]}, {"class_name": "BatchNormalization", "config": {"name": "batch_normalization_593", "trainable": false, "dtype": "float32", "axis": [3], "momentum": 0.99, "epsilon": 0.001, "center": true, "scale": false, "beta_initializer": {"class_name": "Zeros", "config": {}}, "gamma_initializer": {"class_name": "Ones", "config": {}}, "moving_mean_initializer": {"class_name": "Zeros", "config": {}}, "moving_variance_initializer": {"class_name": "Ones", "config": {}}, "beta_regularizer": null, "gamma_regularizer": null, "beta_constraint": null, "gamma_constraint": null}, "name": "batch_normalization_593", "inbound_nodes": [[["conv2d_593", 0, 0, {}]]]}, {"class_name": "Activation", "config": {"name": "activation_590", "trainable": false, "dtype": "float32", "activation": "relu"}, "name": "activation_590", "inbound_nodes": [[["batch_normalization_590", 0, 0, {}]]]}, {"class_name": "Activation", "config": {"name": "activation_593", "trainable": false, "dtype": "float32", "activation": "relu"}, "name": "activation_593", "inbound_nodes": [[["batch_normalization_593", 0, 0, {}]]]}, {"class_name": "MaxPooling2D", "config": {"name": "max_pooling2d_26", "trainable": false, "dtype": "float32", "pool_size": [3, 3], "padding": "valid", "strides": [2, 2], "data_format": "channels_last"}, "name": "max_pooling2d_26", "inbound_nodes": [[["mixed2", 0, 0, {}]]]}, {"class_name": "Concatenate", "config": {"name": "mixed3", "trainable": false, "dtype": "float32", "axis": 3}, "name": "mixed3", "inbound_nodes": [[["activation_590", 0, 0, {}], ["activation_593", 0, 0, {}], ["max_pooling2d_26", 0, 0, {}]]]}, {"class_name": "Conv2D", "config": {"name": "conv2d_598", "trainable": false, "dtype": "float32", "filters": 128, "kernel_size": [1, 1], "strides": [1, 1], "padding": "same", "data_format": "channels_last", "dilation_rate": [1, 1], "groups": 1, "activation": "linear", "use_bias": false, "kernel_initializer": {"class_name": "GlorotUniform", "config": {"seed": null}}, "bias_initializer": {"class_name": "Zeros", "config": {}}, "kernel_regularizer": null, "bias_regularizer": null, "activity_regularizer": null, "kernel_constraint": null, "bias_constraint": null}, "name": "conv2d_598", "inbound_nodes": [[["mixed3", 0, 0, {}]]]}, {"class_name": "BatchNormalization", "config": {"name": "batch_normalization_598", "trainable": false, "dtype": "float32", "axis": [3], "momentum": 0.99, "epsilon": 0.001, "center": true, "scale": false, "beta_initializer": {"class_name": "Zeros", "config": {}}, "gamma_initializer": {"class_name": "Ones", "config": {}}, "moving_mean_initializer": {"class_name": "Zeros", "config": {}}, "moving_variance_initializer": {"class_name": "Ones", "config": {}}, "beta_regularizer": null, "gamma_regularizer": null, "beta_constraint": null, "gamma_constraint": null}, "name": "batch_normalization_598", "inbound_nodes": [[["conv2d_598", 0, 0, {}]]]}, {"class_name": "Activation", "config": {"name": "activation_598", "trainable": false, "dtype": "float32", "activation": "relu"}, "name": "activation_598", "inbound_nodes": [[["batch_normalization_598", 0, 0, {}]]]}, {"class_name": "Conv2D", "config": {"name": "conv2d_599", "trainable": false, "dtype": "float32", "filters": 128, "kernel_size": [7, 1], "strides": [1, 1], "padding": "same", "data_format": "channels_last", "dilation_rate": [1, 1], "groups": 1, "activation": "linear", "use_bias": false, "kernel_initializer": {"class_name": "GlorotUniform", "config": {"seed": null}}, "bias_initializer": {"class_name": "Zeros", "config": {}}, "kernel_regularizer": null, "bias_regularizer": null, "activity_regularizer": null, "kernel_constraint": null, "bias_constraint": null}, "name": "conv2d_599", "inbound_nodes": [[["activation_598", 0, 0, {}]]]}, {"class_name": "BatchNormalization", "config": {"name": "batch_normalization_599", "trainable": false, "dtype": "float32", "axis": [3], "momentum": 0.99, "epsilon": 0.001, "center": true, "scale": false, "beta_initializer": {"class_name": "Zeros", "config": {}}, "gamma_initializer": {"class_name": "Ones", "config": {}}, "moving_mean_initializer": {"class_name": "Zeros", "config": {}}, "moving_variance_initializer": {"class_name": "Ones", "config": {}}, "beta_regularizer": null, "gamma_regularizer": null, "beta_constraint": null, "gamma_constraint": null}, "name": "batch_normalization_599", "inbound_nodes": [[["conv2d_599", 0, 0, {}]]]}, {"class_name": "Activation", "config": {"name": "activation_599", "trainable": false, "dtype": "float32", "activation": "relu"}, "name": "activation_599", "inbound_nodes": [[["batch_normalization_599", 0, 0, {}]]]}, {"class_name": "Conv2D", "config": {"name": "conv2d_595", "trainable": false, "dtype": "float32", "filters": 128, "kernel_size": [1, 1], "strides": [1, 1], "padding": "same", "data_format": "channels_last", "dilation_rate": [1, 1], "groups": 1, "activation": "linear", "use_bias": false, "kernel_initializer": {"class_name": "GlorotUniform", "config": {"seed": null}}, "bias_initializer": {"class_name": "Zeros", "config": {}}, "kernel_regularizer": null, "bias_regularizer": null, "activity_regularizer": null, "kernel_constraint": null, "bias_constraint": null}, "name": "conv2d_595", "inbound_nodes": [[["mixed3", 0, 0, {}]]]}, {"class_name": "Conv2D", "config": {"name": "conv2d_600", "trainable": false, "dtype": "float32", "filters": 128, "kernel_size": [1, 7], "strides": [1, 1], "padding": "same", "data_format": "channels_last", "dilation_rate": [1, 1], "groups": 1, "activation": "linear", "use_bias": false, "kernel_initializer": {"class_name": "GlorotUniform", "config": {"seed": null}}, "bias_initializer": {"class_name": "Zeros", "config": {}}, "kernel_regularizer": null, "bias_regularizer": null, "activity_regularizer": null, "kernel_constraint": null, "bias_constraint": null}, "name": "conv2d_600", "inbound_nodes": [[["activation_599", 0, 0, {}]]]}, {"class_name": "BatchNormalization", "config": {"name": "batch_normalization_595", "trainable": false, "dtype": "float32", "axis": [3], "momentum": 0.99, "epsilon": 0.001, "center": true, "scale": false, "beta_initializer": {"class_name": "Zeros", "config": {}}, "gamma_initializer": {"class_name": "Ones", "config": {}}, "moving_mean_initializer": {"class_name": "Zeros", "config": {}}, "moving_variance_initializer": {"class_name": "Ones", "config": {}}, "beta_regularizer": null, "gamma_regularizer": null, "beta_constraint": null, "gamma_constraint": null}, "name": "batch_normalization_595", "inbound_nodes": [[["conv2d_595", 0, 0, {}]]]}, {"class_name": "BatchNormalization", "config": {"name": "batch_normalization_600", "trainable": false, "dtype": "float32", "axis": [3], "momentum": 0.99, "epsilon": 0.001, "center": true, "scale": false, "beta_initializer": {"class_name": "Zeros", "config": {}}, "gamma_initializer": {"class_name": "Ones", "config": {}}, "moving_mean_initializer": {"class_name": "Zeros", "config": {}}, "moving_variance_initializer": {"class_name": "Ones", "config": {}}, "beta_regularizer": null, "gamma_regularizer": null, "beta_constraint": null, "gamma_constraint": null}, "name": "batch_normalization_600", "inbound_nodes": [[["conv2d_600", 0, 0, {}]]]}, {"class_name": "Activation", "config": {"name": "activation_595", "trainable": false, "dtype": "float32", "activation": "relu"}, "name": "activation_595", "inbound_nodes": [[["batch_normalization_595", 0, 0, {}]]]}, {"class_name": "Activation", "config": {"name": "activation_600", "trainable": false, "dtype": "float32", "activation": "relu"}, "name": "activation_600", "inbound_nodes": [[["batch_normalization_600", 0, 0, {}]]]}, {"class_name": "Conv2D", "config": {"name": "conv2d_596", "trainable": false, "dtype": "float32", "filters": 128, "kernel_size": [1, 7], "strides": [1, 1], "padding": "same", "data_format": "channels_last", "dilation_rate": [1, 1], "groups": 1, "activation": "linear", "use_bias": false, "kernel_initializer": {"class_name": "GlorotUniform", "config": {"seed": null}}, "bias_initializer": {"class_name": "Zeros", "config": {}}, "kernel_regularizer": null, "bias_regularizer": null, "activity_regularizer": null, "kernel_constraint": null, "bias_constraint": null}, "name": "conv2d_596", "inbound_nodes": [[["activation_595", 0, 0, {}]]]}, {"class_name": "Conv2D", "config": {"name": "conv2d_601", "trainable": false, "dtype": "float32", "filters": 128, "kernel_size": [7, 1], "strides": [1, 1], "padding": "same", "data_format": "channels_last", "dilation_rate": [1, 1], "groups": 1, "activation": "linear", "use_bias": false, "kernel_initializer": {"class_name": "GlorotUniform", "config": {"seed": null}}, "bias_initializer": {"class_name": "Zeros", "config": {}}, "kernel_regularizer": null, "bias_regularizer": null, "activity_regularizer": null, "kernel_constraint": null, "bias_constraint": null}, "name": "conv2d_601", "inbound_nodes": [[["activation_600", 0, 0, {}]]]}, {"class_name": "BatchNormalization", "config": {"name": "batch_normalization_596", "trainable": false, "dtype": "float32", "axis": [3], "momentum": 0.99, "epsilon": 0.001, "center": true, "scale": false, "beta_initializer": {"class_name": "Zeros", "config": {}}, "gamma_initializer": {"class_name": "Ones", "config": {}}, "moving_mean_initializer": {"class_name": "Zeros", "config": {}}, "moving_variance_initializer": {"class_name": "Ones", "config": {}}, "beta_regularizer": null, "gamma_regularizer": null, "beta_constraint": null, "gamma_constraint": null}, "name": "batch_normalization_596", "inbound_nodes": [[["conv2d_596", 0, 0, {}]]]}, {"class_name": "BatchNormalization", "config": {"name": "batch_normalization_601", "trainable": false, "dtype": "float32", "axis": [3], "momentum": 0.99, "epsilon": 0.001, "center": true, "scale": false, "beta_initializer": {"class_name": "Zeros", "config": {}}, "gamma_initializer": {"class_name": "Ones", "config": {}}, "moving_mean_initializer": {"class_name": "Zeros", "config": {}}, "moving_variance_initializer": {"class_name": "Ones", "config": {}}, "beta_regularizer": null, "gamma_regularizer": null, "beta_constraint": null, "gamma_constraint": null}, "name": "batch_normalization_601", "inbound_nodes": [[["conv2d_601", 0, 0, {}]]]}, {"class_name": "Activation", "config": {"name": "activation_596", "trainable": false, "dtype": "float32", "activation": "relu"}, "name": "activation_596", "inbound_nodes": [[["batch_normalization_596", 0, 0, {}]]]}, {"class_name": "Activation", "config": {"name": "activation_601", "trainable": false, "dtype": "float32", "activation": "relu"}, "name": "activation_601", "inbound_nodes": [[["batch_normalization_601", 0, 0, {}]]]}, {"class_name": "AveragePooling2D", "config": {"name": "average_pooling2d_57", "trainable": false, "dtype": "float32", "pool_size": [3, 3], "padding": "same", "strides": [1, 1], "data_format": "channels_last"}, "name": "average_pooling2d_57", "inbound_nodes": [[["mixed3", 0, 0, {}]]]}, {"class_name": "Conv2D", "config": {"name": "conv2d_594", "trainable": false, "dtype": "float32", "filters": 192, "kernel_size": [1, 1], "strides": [1, 1], "padding": "same", "data_format": "channels_last", "dilation_rate": [1, 1], "groups": 1, "activation": "linear", "use_bias": false, "kernel_initializer": {"class_name": "GlorotUniform", "config": {"seed": null}}, "bias_initializer": {"class_name": "Zeros", "config": {}}, "kernel_regularizer": null, "bias_regularizer": null, "activity_regularizer": null, "kernel_constraint": null, "bias_constraint": null}, "name": "conv2d_594", "inbound_nodes": [[["mixed3", 0, 0, {}]]]}, {"class_name": "Conv2D", "config": {"name": "conv2d_597", "trainable": false, "dtype": "float32", "filters": 192, "kernel_size": [7, 1], "strides": [1, 1], "padding": "same", "data_format": "channels_last", "dilation_rate": [1, 1], "groups": 1, "activation": "linear", "use_bias": false, "kernel_initializer": {"class_name": "GlorotUniform", "config": {"seed": null}}, "bias_initializer": {"class_name": "Zeros", "config": {}}, "kernel_regularizer": null, "bias_regularizer": null, "activity_regularizer": null, "kernel_constraint": null, "bias_constraint": null}, "name": "conv2d_597", "inbound_nodes": [[["activation_596", 0, 0, {}]]]}, {"class_name": "Conv2D", "config": {"name": "conv2d_602", "trainable": false, "dtype": "float32", "filters": 192, "kernel_size": [1, 7], "strides": [1, 1], "padding": "same", "data_format": "channels_last", "dilation_rate": [1, 1], "groups": 1, "activation": "linear", "use_bias": false, "kernel_initializer": {"class_name": "GlorotUniform", "config": {"seed": null}}, "bias_initializer": {"class_name": "Zeros", "config": {}}, "kernel_regularizer": null, "bias_regularizer": null, "activity_regularizer": null, "kernel_constraint": null, "bias_constraint": null}, "name": "conv2d_602", "inbound_nodes": [[["activation_601", 0, 0, {}]]]}, {"class_name": "Conv2D", "config": {"name": "conv2d_603", "trainable": false, "dtype": "float32", "filters": 192, "kernel_size": [1, 1], "strides": [1, 1], "padding": "same", "data_format": "channels_last", "dilation_rate": [1, 1], "groups": 1, "activation": "linear", "use_bias": false, "kernel_initializer": {"class_name": "GlorotUniform", "config": {"seed": null}}, "bias_initializer": {"class_name": "Zeros", "config": {}}, "kernel_regularizer": null, "bias_regularizer": null, "activity_regularizer": null, "kernel_constraint": null, "bias_constraint": null}, "name": "conv2d_603", "inbound_nodes": [[["average_pooling2d_57", 0, 0, {}]]]}, {"class_name": "BatchNormalization", "config": {"name": "batch_normalization_594", "trainable": false, "dtype": "float32", "axis": [3], "momentum": 0.99, "epsilon": 0.001, "center": true, "scale": false, "beta_initializer": {"class_name": "Zeros", "config": {}}, "gamma_initializer": {"class_name": "Ones", "config": {}}, "moving_mean_initializer": {"class_name": "Zeros", "config": {}}, "moving_variance_initializer": {"class_name": "Ones", "config": {}}, "beta_regularizer": null, "gamma_regularizer": null, "beta_constraint": null, "gamma_constraint": null}, "name": "batch_normalization_594", "inbound_nodes": [[["conv2d_594", 0, 0, {}]]]}, {"class_name": "BatchNormalization", "config": {"name": "batch_normalization_597", "trainable": false, "dtype": "float32", "axis": [3], "momentum": 0.99, "epsilon": 0.001, "center": true, "scale": false, "beta_initializer": {"class_name": "Zeros", "config": {}}, "gamma_initializer": {"class_name": "Ones", "config": {}}, "moving_mean_initializer": {"class_name": "Zeros", "config": {}}, "moving_variance_initializer": {"class_name": "Ones", "config": {}}, "beta_regularizer": null, "gamma_regularizer": null, "beta_constraint": null, "gamma_constraint": null}, "name": "batch_normalization_597", "inbound_nodes": [[["conv2d_597", 0, 0, {}]]]}, {"class_name": "BatchNormalization", "config": {"name": "batch_normalization_602", "trainable": false, "dtype": "float32", "axis": [3], "momentum": 0.99, "epsilon": 0.001, "center": true, "scale": false, "beta_initializer": {"class_name": "Zeros", "config": {}}, "gamma_initializer": {"class_name": "Ones", "config": {}}, "moving_mean_initializer": {"class_name": "Zeros", "config": {}}, "moving_variance_initializer": {"class_name": "Ones", "config": {}}, "beta_regularizer": null, "gamma_regularizer": null, "beta_constraint": null, "gamma_constraint": null}, "name": "batch_normalization_602", "inbound_nodes": [[["conv2d_602", 0, 0, {}]]]}, {"class_name": "BatchNormalization", "config": {"name": "batch_normalization_603", "trainable": false, "dtype": "float32", "axis": [3], "momentum": 0.99, "epsilon": 0.001, "center": true, "scale": false, "beta_initializer": {"class_name": "Zeros", "config": {}}, "gamma_initializer": {"class_name": "Ones", "config": {}}, "moving_mean_initializer": {"class_name": "Zeros", "config": {}}, "moving_variance_initializer": {"class_name": "Ones", "config": {}}, "beta_regularizer": null, "gamma_regularizer": null, "beta_constraint": null, "gamma_constraint": null}, "name": "batch_normalization_603", "inbound_nodes": [[["conv2d_603", 0, 0, {}]]]}, {"class_name": "Activation", "config": {"name": "activation_594", "trainable": false, "dtype": "float32", "activation": "relu"}, "name": "activation_594", "inbound_nodes": [[["batch_normalization_594", 0, 0, {}]]]}, {"class_name": "Activation", "config": {"name": "activation_597", "trainable": false, "dtype": "float32", "activation": "relu"}, "name": "activation_597", "inbound_nodes": [[["batch_normalization_597", 0, 0, {}]]]}, {"class_name": "Activation", "config": {"name": "activation_602", "trainable": false, "dtype": "float32", "activation": "relu"}, "name": "activation_602", "inbound_nodes": [[["batch_normalization_602", 0, 0, {}]]]}, {"class_name": "Activation", "config": {"name": "activation_603", "trainable": false, "dtype": "float32", "activation": "relu"}, "name": "activation_603", "inbound_nodes": [[["batch_normalization_603", 0, 0, {}]]]}, {"class_name": "Concatenate", "config": {"name": "mixed4", "trainable": false, "dtype": "float32", "axis": 3}, "name": "mixed4", "inbound_nodes": [[["activation_594", 0, 0, {}], ["activation_597", 0, 0, {}], ["activation_602", 0, 0, {}], ["activation_603", 0, 0, {}]]]}, {"class_name": "Conv2D", "config": {"name": "conv2d_608", "trainable": false, "dtype": "float32", "filters": 160, "kernel_size": [1, 1], "strides": [1, 1], "padding": "same", "data_format": "channels_last", "dilation_rate": [1, 1], "groups": 1, "activation": "linear", "use_bias": false, "kernel_initializer": {"class_name": "GlorotUniform", "config": {"seed": null}}, "bias_initializer": {"class_name": "Zeros", "config": {}}, "kernel_regularizer": null, "bias_regularizer": null, "activity_regularizer": null, "kernel_constraint": null, "bias_constraint": null}, "name": "conv2d_608", "inbound_nodes": [[["mixed4", 0, 0, {}]]]}, {"class_name": "BatchNormalization", "config": {"name": "batch_normalization_608", "trainable": false, "dtype": "float32", "axis": [3], "momentum": 0.99, "epsilon": 0.001, "center": true, "scale": false, "beta_initializer": {"class_name": "Zeros", "config": {}}, "gamma_initializer": {"class_name": "Ones", "config": {}}, "moving_mean_initializer": {"class_name": "Zeros", "config": {}}, "moving_variance_initializer": {"class_name": "Ones", "config": {}}, "beta_regularizer": null, "gamma_regularizer": null, "beta_constraint": null, "gamma_constraint": null}, "name": "batch_normalization_608", "inbound_nodes": [[["conv2d_608", 0, 0, {}]]]}, {"class_name": "Activation", "config": {"name": "activation_608", "trainable": false, "dtype": "float32", "activation": "relu"}, "name": "activation_608", "inbound_nodes": [[["batch_normalization_608", 0, 0, {}]]]}, {"class_name": "Conv2D", "config": {"name": "conv2d_609", "trainable": false, "dtype": "float32", "filters": 160, "kernel_size": [7, 1], "strides": [1, 1], "padding": "same", "data_format": "channels_last", "dilation_rate": [1, 1], "groups": 1, "activation": "linear", "use_bias": false, "kernel_initializer": {"class_name": "GlorotUniform", "config": {"seed": null}}, "bias_initializer": {"class_name": "Zeros", "config": {}}, "kernel_regularizer": null, "bias_regularizer": null, "activity_regularizer": null, "kernel_constraint": null, "bias_constraint": null}, "name": "conv2d_609", "inbound_nodes": [[["activation_608", 0, 0, {}]]]}, {"class_name": "BatchNormalization", "config": {"name": "batch_normalization_609", "trainable": false, "dtype": "float32", "axis": [3], "momentum": 0.99, "epsilon": 0.001, "center": true, "scale": false, "beta_initializer": {"class_name": "Zeros", "config": {}}, "gamma_initializer": {"class_name": "Ones", "config": {}}, "moving_mean_initializer": {"class_name": "Zeros", "config": {}}, "moving_variance_initializer": {"class_name": "Ones", "config": {}}, "beta_regularizer": null, "gamma_regularizer": null, "beta_constraint": null, "gamma_constraint": null}, "name": "batch_normalization_609", "inbound_nodes": [[["conv2d_609", 0, 0, {}]]]}, {"class_name": "Activation", "config": {"name": "activation_609", "trainable": false, "dtype": "float32", "activation": "relu"}, "name": "activation_609", "inbound_nodes": [[["batch_normalization_609", 0, 0, {}]]]}, {"class_name": "Conv2D", "config": {"name": "conv2d_605", "trainable": false, "dtype": "float32", "filters": 160, "kernel_size": [1, 1], "strides": [1, 1], "padding": "same", "data_format": "channels_last", "dilation_rate": [1, 1], "groups": 1, "activation": "linear", "use_bias": false, "kernel_initializer": {"class_name": "GlorotUniform", "config": {"seed": null}}, "bias_initializer": {"class_name": "Zeros", "config": {}}, "kernel_regularizer": null, "bias_regularizer": null, "activity_regularizer": null, "kernel_constraint": null, "bias_constraint": null}, "name": "conv2d_605", "inbound_nodes": [[["mixed4", 0, 0, {}]]]}, {"class_name": "Conv2D", "config": {"name": "conv2d_610", "trainable": false, "dtype": "float32", "filters": 160, "kernel_size": [1, 7], "strides": [1, 1], "padding": "same", "data_format": "channels_last", "dilation_rate": [1, 1], "groups": 1, "activation": "linear", "use_bias": false, "kernel_initializer": {"class_name": "GlorotUniform", "config": {"seed": null}}, "bias_initializer": {"class_name": "Zeros", "config": {}}, "kernel_regularizer": null, "bias_regularizer": null, "activity_regularizer": null, "kernel_constraint": null, "bias_constraint": null}, "name": "conv2d_610", "inbound_nodes": [[["activation_609", 0, 0, {}]]]}, {"class_name": "BatchNormalization", "config": {"name": "batch_normalization_605", "trainable": false, "dtype": "float32", "axis": [3], "momentum": 0.99, "epsilon": 0.001, "center": true, "scale": false, "beta_initializer": {"class_name": "Zeros", "config": {}}, "gamma_initializer": {"class_name": "Ones", "config": {}}, "moving_mean_initializer": {"class_name": "Zeros", "config": {}}, "moving_variance_initializer": {"class_name": "Ones", "config": {}}, "beta_regularizer": null, "gamma_regularizer": null, "beta_constraint": null, "gamma_constraint": null}, "name": "batch_normalization_605", "inbound_nodes": [[["conv2d_605", 0, 0, {}]]]}, {"class_name": "BatchNormalization", "config": {"name": "batch_normalization_610", "trainable": false, "dtype": "float32", "axis": [3], "momentum": 0.99, "epsilon": 0.001, "center": true, "scale": false, "beta_initializer": {"class_name": "Zeros", "config": {}}, "gamma_initializer": {"class_name": "Ones", "config": {}}, "moving_mean_initializer": {"class_name": "Zeros", "config": {}}, "moving_variance_initializer": {"class_name": "Ones", "config": {}}, "beta_regularizer": null, "gamma_regularizer": null, "beta_constraint": null, "gamma_constraint": null}, "name": "batch_normalization_610", "inbound_nodes": [[["conv2d_610", 0, 0, {}]]]}, {"class_name": "Activation", "config": {"name": "activation_605", "trainable": false, "dtype": "float32", "activation": "relu"}, "name": "activation_605", "inbound_nodes": [[["batch_normalization_605", 0, 0, {}]]]}, {"class_name": "Activation", "config": {"name": "activation_610", "trainable": false, "dtype": "float32", "activation": "relu"}, "name": "activation_610", "inbound_nodes": [[["batch_normalization_610", 0, 0, {}]]]}, {"class_name": "Conv2D", "config": {"name": "conv2d_606", "trainable": false, "dtype": "float32", "filters": 160, "kernel_size": [1, 7], "strides": [1, 1], "padding": "same", "data_format": "channels_last", "dilation_rate": [1, 1], "groups": 1, "activation": "linear", "use_bias": false, "kernel_initializer": {"class_name": "GlorotUniform", "config": {"seed": null}}, "bias_initializer": {"class_name": "Zeros", "config": {}}, "kernel_regularizer": null, "bias_regularizer": null, "activity_regularizer": null, "kernel_constraint": null, "bias_constraint": null}, "name": "conv2d_606", "inbound_nodes": [[["activation_605", 0, 0, {}]]]}, {"class_name": "Conv2D", "config": {"name": "conv2d_611", "trainable": false, "dtype": "float32", "filters": 160, "kernel_size": [7, 1], "strides": [1, 1], "padding": "same", "data_format": "channels_last", "dilation_rate": [1, 1], "groups": 1, "activation": "linear", "use_bias": false, "kernel_initializer": {"class_name": "GlorotUniform", "config": {"seed": null}}, "bias_initializer": {"class_name": "Zeros", "config": {}}, "kernel_regularizer": null, "bias_regularizer": null, "activity_regularizer": null, "kernel_constraint": null, "bias_constraint": null}, "name": "conv2d_611", "inbound_nodes": [[["activation_610", 0, 0, {}]]]}, {"class_name": "BatchNormalization", "config": {"name": "batch_normalization_606", "trainable": false, "dtype": "float32", "axis": [3], "momentum": 0.99, "epsilon": 0.001, "center": true, "scale": false, "beta_initializer": {"class_name": "Zeros", "config": {}}, "gamma_initializer": {"class_name": "Ones", "config": {}}, "moving_mean_initializer": {"class_name": "Zeros", "config": {}}, "moving_variance_initializer": {"class_name": "Ones", "config": {}}, "beta_regularizer": null, "gamma_regularizer": null, "beta_constraint": null, "gamma_constraint": null}, "name": "batch_normalization_606", "inbound_nodes": [[["conv2d_606", 0, 0, {}]]]}, {"class_name": "BatchNormalization", "config": {"name": "batch_normalization_611", "trainable": false, "dtype": "float32", "axis": [3], "momentum": 0.99, "epsilon": 0.001, "center": true, "scale": false, "beta_initializer": {"class_name": "Zeros", "config": {}}, "gamma_initializer": {"class_name": "Ones", "config": {}}, "moving_mean_initializer": {"class_name": "Zeros", "config": {}}, "moving_variance_initializer": {"class_name": "Ones", "config": {}}, "beta_regularizer": null, "gamma_regularizer": null, "beta_constraint": null, "gamma_constraint": null}, "name": "batch_normalization_611", "inbound_nodes": [[["conv2d_611", 0, 0, {}]]]}, {"class_name": "Activation", "config": {"name": "activation_606", "trainable": false, "dtype": "float32", "activation": "relu"}, "name": "activation_606", "inbound_nodes": [[["batch_normalization_606", 0, 0, {}]]]}, {"class_name": "Activation", "config": {"name": "activation_611", "trainable": false, "dtype": "float32", "activation": "relu"}, "name": "activation_611", "inbound_nodes": [[["batch_normalization_611", 0, 0, {}]]]}, {"class_name": "AveragePooling2D", "config": {"name": "average_pooling2d_58", "trainable": false, "dtype": "float32", "pool_size": [3, 3], "padding": "same", "strides": [1, 1], "data_format": "channels_last"}, "name": "average_pooling2d_58", "inbound_nodes": [[["mixed4", 0, 0, {}]]]}, {"class_name": "Conv2D", "config": {"name": "conv2d_604", "trainable": false, "dtype": "float32", "filters": 192, "kernel_size": [1, 1], "strides": [1, 1], "padding": "same", "data_format": "channels_last", "dilation_rate": [1, 1], "groups": 1, "activation": "linear", "use_bias": false, "kernel_initializer": {"class_name": "GlorotUniform", "config": {"seed": null}}, "bias_initializer": {"class_name": "Zeros", "config": {}}, "kernel_regularizer": null, "bias_regularizer": null, "activity_regularizer": null, "kernel_constraint": null, "bias_constraint": null}, "name": "conv2d_604", "inbound_nodes": [[["mixed4", 0, 0, {}]]]}, {"class_name": "Conv2D", "config": {"name": "conv2d_607", "trainable": false, "dtype": "float32", "filters": 192, "kernel_size": [7, 1], "strides": [1, 1], "padding": "same", "data_format": "channels_last", "dilation_rate": [1, 1], "groups": 1, "activation": "linear", "use_bias": false, "kernel_initializer": {"class_name": "GlorotUniform", "config": {"seed": null}}, "bias_initializer": {"class_name": "Zeros", "config": {}}, "kernel_regularizer": null, "bias_regularizer": null, "activity_regularizer": null, "kernel_constraint": null, "bias_constraint": null}, "name": "conv2d_607", "inbound_nodes": [[["activation_606", 0, 0, {}]]]}, {"class_name": "Conv2D", "config": {"name": "conv2d_612", "trainable": false, "dtype": "float32", "filters": 192, "kernel_size": [1, 7], "strides": [1, 1], "padding": "same", "data_format": "channels_last", "dilation_rate": [1, 1], "groups": 1, "activation": "linear", "use_bias": false, "kernel_initializer": {"class_name": "GlorotUniform", "config": {"seed": null}}, "bias_initializer": {"class_name": "Zeros", "config": {}}, "kernel_regularizer": null, "bias_regularizer": null, "activity_regularizer": null, "kernel_constraint": null, "bias_constraint": null}, "name": "conv2d_612", "inbound_nodes": [[["activation_611", 0, 0, {}]]]}, {"class_name": "Conv2D", "config": {"name": "conv2d_613", "trainable": false, "dtype": "float32", "filters": 192, "kernel_size": [1, 1], "strides": [1, 1], "padding": "same", "data_format": "channels_last", "dilation_rate": [1, 1], "groups": 1, "activation": "linear", "use_bias": false, "kernel_initializer": {"class_name": "GlorotUniform", "config": {"seed": null}}, "bias_initializer": {"class_name": "Zeros", "config": {}}, "kernel_regularizer": null, "bias_regularizer": null, "activity_regularizer": null, "kernel_constraint": null, "bias_constraint": null}, "name": "conv2d_613", "inbound_nodes": [[["average_pooling2d_58", 0, 0, {}]]]}, {"class_name": "BatchNormalization", "config": {"name": "batch_normalization_604", "trainable": false, "dtype": "float32", "axis": [3], "momentum": 0.99, "epsilon": 0.001, "center": true, "scale": false, "beta_initializer": {"class_name": "Zeros", "config": {}}, "gamma_initializer": {"class_name": "Ones", "config": {}}, "moving_mean_initializer": {"class_name": "Zeros", "config": {}}, "moving_variance_initializer": {"class_name": "Ones", "config": {}}, "beta_regularizer": null, "gamma_regularizer": null, "beta_constraint": null, "gamma_constraint": null}, "name": "batch_normalization_604", "inbound_nodes": [[["conv2d_604", 0, 0, {}]]]}, {"class_name": "BatchNormalization", "config": {"name": "batch_normalization_607", "trainable": false, "dtype": "float32", "axis": [3], "momentum": 0.99, "epsilon": 0.001, "center": true, "scale": false, "beta_initializer": {"class_name": "Zeros", "config": {}}, "gamma_initializer": {"class_name": "Ones", "config": {}}, "moving_mean_initializer": {"class_name": "Zeros", "config": {}}, "moving_variance_initializer": {"class_name": "Ones", "config": {}}, "beta_regularizer": null, "gamma_regularizer": null, "beta_constraint": null, "gamma_constraint": null}, "name": "batch_normalization_607", "inbound_nodes": [[["conv2d_607", 0, 0, {}]]]}, {"class_name": "BatchNormalization", "config": {"name": "batch_normalization_612", "trainable": false, "dtype": "float32", "axis": [3], "momentum": 0.99, "epsilon": 0.001, "center": true, "scale": false, "beta_initializer": {"class_name": "Zeros", "config": {}}, "gamma_initializer": {"class_name": "Ones", "config": {}}, "moving_mean_initializer": {"class_name": "Zeros", "config": {}}, "moving_variance_initializer": {"class_name": "Ones", "config": {}}, "beta_regularizer": null, "gamma_regularizer": null, "beta_constraint": null, "gamma_constraint": null}, "name": "batch_normalization_612", "inbound_nodes": [[["conv2d_612", 0, 0, {}]]]}, {"class_name": "BatchNormalization", "config": {"name": "batch_normalization_613", "trainable": false, "dtype": "float32", "axis": [3], "momentum": 0.99, "epsilon": 0.001, "center": true, "scale": false, "beta_initializer": {"class_name": "Zeros", "config": {}}, "gamma_initializer": {"class_name": "Ones", "config": {}}, "moving_mean_initializer": {"class_name": "Zeros", "config": {}}, "moving_variance_initializer": {"class_name": "Ones", "config": {}}, "beta_regularizer": null, "gamma_regularizer": null, "beta_constraint": null, "gamma_constraint": null}, "name": "batch_normalization_613", "inbound_nodes": [[["conv2d_613", 0, 0, {}]]]}, {"class_name": "Activation", "config": {"name": "activation_604", "trainable": false, "dtype": "float32", "activation": "relu"}, "name": "activation_604", "inbound_nodes": [[["batch_normalization_604", 0, 0, {}]]]}, {"class_name": "Activation", "config": {"name": "activation_607", "trainable": false, "dtype": "float32", "activation": "relu"}, "name": "activation_607", "inbound_nodes": [[["batch_normalization_607", 0, 0, {}]]]}, {"class_name": "Activation", "config": {"name": "activation_612", "trainable": false, "dtype": "float32", "activation": "relu"}, "name": "activation_612", "inbound_nodes": [[["batch_normalization_612", 0, 0, {}]]]}, {"class_name": "Activation", "config": {"name": "activation_613", "trainable": false, "dtype": "float32", "activation": "relu"}, "name": "activation_613", "inbound_nodes": [[["batch_normalization_613", 0, 0, {}]]]}, {"class_name": "Concatenate", "config": {"name": "mixed5", "trainable": false, "dtype": "float32", "axis": 3}, "name": "mixed5", "inbound_nodes": [[["activation_604", 0, 0, {}], ["activation_607", 0, 0, {}], ["activation_612", 0, 0, {}], ["activation_613", 0, 0, {}]]]}, {"class_name": "Conv2D", "config": {"name": "conv2d_618", "trainable": false, "dtype": "float32", "filters": 160, "kernel_size": [1, 1], "strides": [1, 1], "padding": "same", "data_format": "channels_last", "dilation_rate": [1, 1], "groups": 1, "activation": "linear", "use_bias": false, "kernel_initializer": {"class_name": "GlorotUniform", "config": {"seed": null}}, "bias_initializer": {"class_name": "Zeros", "config": {}}, "kernel_regularizer": null, "bias_regularizer": null, "activity_regularizer": null, "kernel_constraint": null, "bias_constraint": null}, "name": "conv2d_618", "inbound_nodes": [[["mixed5", 0, 0, {}]]]}, {"class_name": "BatchNormalization", "config": {"name": "batch_normalization_618", "trainable": false, "dtype": "float32", "axis": [3], "momentum": 0.99, "epsilon": 0.001, "center": true, "scale": false, "beta_initializer": {"class_name": "Zeros", "config": {}}, "gamma_initializer": {"class_name": "Ones", "config": {}}, "moving_mean_initializer": {"class_name": "Zeros", "config": {}}, "moving_variance_initializer": {"class_name": "Ones", "config": {}}, "beta_regularizer": null, "gamma_regularizer": null, "beta_constraint": null, "gamma_constraint": null}, "name": "batch_normalization_618", "inbound_nodes": [[["conv2d_618", 0, 0, {}]]]}, {"class_name": "Activation", "config": {"name": "activation_618", "trainable": false, "dtype": "float32", "activation": "relu"}, "name": "activation_618", "inbound_nodes": [[["batch_normalization_618", 0, 0, {}]]]}, {"class_name": "Conv2D", "config": {"name": "conv2d_619", "trainable": false, "dtype": "float32", "filters": 160, "kernel_size": [7, 1], "strides": [1, 1], "padding": "same", "data_format": "channels_last", "dilation_rate": [1, 1], "groups": 1, "activation": "linear", "use_bias": false, "kernel_initializer": {"class_name": "GlorotUniform", "config": {"seed": null}}, "bias_initializer": {"class_name": "Zeros", "config": {}}, "kernel_regularizer": null, "bias_regularizer": null, "activity_regularizer": null, "kernel_constraint": null, "bias_constraint": null}, "name": "conv2d_619", "inbound_nodes": [[["activation_618", 0, 0, {}]]]}, {"class_name": "BatchNormalization", "config": {"name": "batch_normalization_619", "trainable": false, "dtype": "float32", "axis": [3], "momentum": 0.99, "epsilon": 0.001, "center": true, "scale": false, "beta_initializer": {"class_name": "Zeros", "config": {}}, "gamma_initializer": {"class_name": "Ones", "config": {}}, "moving_mean_initializer": {"class_name": "Zeros", "config": {}}, "moving_variance_initializer": {"class_name": "Ones", "config": {}}, "beta_regularizer": null, "gamma_regularizer": null, "beta_constraint": null, "gamma_constraint": null}, "name": "batch_normalization_619", "inbound_nodes": [[["conv2d_619", 0, 0, {}]]]}, {"class_name": "Activation", "config": {"name": "activation_619", "trainable": false, "dtype": "float32", "activation": "relu"}, "name": "activation_619", "inbound_nodes": [[["batch_normalization_619", 0, 0, {}]]]}, {"class_name": "Conv2D", "config": {"name": "conv2d_615", "trainable": false, "dtype": "float32", "filters": 160, "kernel_size": [1, 1], "strides": [1, 1], "padding": "same", "data_format": "channels_last", "dilation_rate": [1, 1], "groups": 1, "activation": "linear", "use_bias": false, "kernel_initializer": {"class_name": "GlorotUniform", "config": {"seed": null}}, "bias_initializer": {"class_name": "Zeros", "config": {}}, "kernel_regularizer": null, "bias_regularizer": null, "activity_regularizer": null, "kernel_constraint": null, "bias_constraint": null}, "name": "conv2d_615", "inbound_nodes": [[["mixed5", 0, 0, {}]]]}, {"class_name": "Conv2D", "config": {"name": "conv2d_620", "trainable": false, "dtype": "float32", "filters": 160, "kernel_size": [1, 7], "strides": [1, 1], "padding": "same", "data_format": "channels_last", "dilation_rate": [1, 1], "groups": 1, "activation": "linear", "use_bias": false, "kernel_initializer": {"class_name": "GlorotUniform", "config": {"seed": null}}, "bias_initializer": {"class_name": "Zeros", "config": {}}, "kernel_regularizer": null, "bias_regularizer": null, "activity_regularizer": null, "kernel_constraint": null, "bias_constraint": null}, "name": "conv2d_620", "inbound_nodes": [[["activation_619", 0, 0, {}]]]}, {"class_name": "BatchNormalization", "config": {"name": "batch_normalization_615", "trainable": false, "dtype": "float32", "axis": [3], "momentum": 0.99, "epsilon": 0.001, "center": true, "scale": false, "beta_initializer": {"class_name": "Zeros", "config": {}}, "gamma_initializer": {"class_name": "Ones", "config": {}}, "moving_mean_initializer": {"class_name": "Zeros", "config": {}}, "moving_variance_initializer": {"class_name": "Ones", "config": {}}, "beta_regularizer": null, "gamma_regularizer": null, "beta_constraint": null, "gamma_constraint": null}, "name": "batch_normalization_615", "inbound_nodes": [[["conv2d_615", 0, 0, {}]]]}, {"class_name": "BatchNormalization", "config": {"name": "batch_normalization_620", "trainable": false, "dtype": "float32", "axis": [3], "momentum": 0.99, "epsilon": 0.001, "center": true, "scale": false, "beta_initializer": {"class_name": "Zeros", "config": {}}, "gamma_initializer": {"class_name": "Ones", "config": {}}, "moving_mean_initializer": {"class_name": "Zeros", "config": {}}, "moving_variance_initializer": {"class_name": "Ones", "config": {}}, "beta_regularizer": null, "gamma_regularizer": null, "beta_constraint": null, "gamma_constraint": null}, "name": "batch_normalization_620", "inbound_nodes": [[["conv2d_620", 0, 0, {}]]]}, {"class_name": "Activation", "config": {"name": "activation_615", "trainable": false, "dtype": "float32", "activation": "relu"}, "name": "activation_615", "inbound_nodes": [[["batch_normalization_615", 0, 0, {}]]]}, {"class_name": "Activation", "config": {"name": "activation_620", "trainable": false, "dtype": "float32", "activation": "relu"}, "name": "activation_620", "inbound_nodes": [[["batch_normalization_620", 0, 0, {}]]]}, {"class_name": "Conv2D", "config": {"name": "conv2d_616", "trainable": false, "dtype": "float32", "filters": 160, "kernel_size": [1, 7], "strides": [1, 1], "padding": "same", "data_format": "channels_last", "dilation_rate": [1, 1], "groups": 1, "activation": "linear", "use_bias": false, "kernel_initializer": {"class_name": "GlorotUniform", "config": {"seed": null}}, "bias_initializer": {"class_name": "Zeros", "config": {}}, "kernel_regularizer": null, "bias_regularizer": null, "activity_regularizer": null, "kernel_constraint": null, "bias_constraint": null}, "name": "conv2d_616", "inbound_nodes": [[["activation_615", 0, 0, {}]]]}, {"class_name": "Conv2D", "config": {"name": "conv2d_621", "trainable": false, "dtype": "float32", "filters": 160, "kernel_size": [7, 1], "strides": [1, 1], "padding": "same", "data_format": "channels_last", "dilation_rate": [1, 1], "groups": 1, "activation": "linear", "use_bias": false, "kernel_initializer": {"class_name": "GlorotUniform", "config": {"seed": null}}, "bias_initializer": {"class_name": "Zeros", "config": {}}, "kernel_regularizer": null, "bias_regularizer": null, "activity_regularizer": null, "kernel_constraint": null, "bias_constraint": null}, "name": "conv2d_621", "inbound_nodes": [[["activation_620", 0, 0, {}]]]}, {"class_name": "BatchNormalization", "config": {"name": "batch_normalization_616", "trainable": false, "dtype": "float32", "axis": [3], "momentum": 0.99, "epsilon": 0.001, "center": true, "scale": false, "beta_initializer": {"class_name": "Zeros", "config": {}}, "gamma_initializer": {"class_name": "Ones", "config": {}}, "moving_mean_initializer": {"class_name": "Zeros", "config": {}}, "moving_variance_initializer": {"class_name": "Ones", "config": {}}, "beta_regularizer": null, "gamma_regularizer": null, "beta_constraint": null, "gamma_constraint": null}, "name": "batch_normalization_616", "inbound_nodes": [[["conv2d_616", 0, 0, {}]]]}, {"class_name": "BatchNormalization", "config": {"name": "batch_normalization_621", "trainable": false, "dtype": "float32", "axis": [3], "momentum": 0.99, "epsilon": 0.001, "center": true, "scale": false, "beta_initializer": {"class_name": "Zeros", "config": {}}, "gamma_initializer": {"class_name": "Ones", "config": {}}, "moving_mean_initializer": {"class_name": "Zeros", "config": {}}, "moving_variance_initializer": {"class_name": "Ones", "config": {}}, "beta_regularizer": null, "gamma_regularizer": null, "beta_constraint": null, "gamma_constraint": null}, "name": "batch_normalization_621", "inbound_nodes": [[["conv2d_621", 0, 0, {}]]]}, {"class_name": "Activation", "config": {"name": "activation_616", "trainable": false, "dtype": "float32", "activation": "relu"}, "name": "activation_616", "inbound_nodes": [[["batch_normalization_616", 0, 0, {}]]]}, {"class_name": "Activation", "config": {"name": "activation_621", "trainable": false, "dtype": "float32", "activation": "relu"}, "name": "activation_621", "inbound_nodes": [[["batch_normalization_621", 0, 0, {}]]]}, {"class_name": "AveragePooling2D", "config": {"name": "average_pooling2d_59", "trainable": false, "dtype": "float32", "pool_size": [3, 3], "padding": "same", "strides": [1, 1], "data_format": "channels_last"}, "name": "average_pooling2d_59", "inbound_nodes": [[["mixed5", 0, 0, {}]]]}, {"class_name": "Conv2D", "config": {"name": "conv2d_614", "trainable": false, "dtype": "float32", "filters": 192, "kernel_size": [1, 1], "strides": [1, 1], "padding": "same", "data_format": "channels_last", "dilation_rate": [1, 1], "groups": 1, "activation": "linear", "use_bias": false, "kernel_initializer": {"class_name": "GlorotUniform", "config": {"seed": null}}, "bias_initializer": {"class_name": "Zeros", "config": {}}, "kernel_regularizer": null, "bias_regularizer": null, "activity_regularizer": null, "kernel_constraint": null, "bias_constraint": null}, "name": "conv2d_614", "inbound_nodes": [[["mixed5", 0, 0, {}]]]}, {"class_name": "Conv2D", "config": {"name": "conv2d_617", "trainable": false, "dtype": "float32", "filters": 192, "kernel_size": [7, 1], "strides": [1, 1], "padding": "same", "data_format": "channels_last", "dilation_rate": [1, 1], "groups": 1, "activation": "linear", "use_bias": false, "kernel_initializer": {"class_name": "GlorotUniform", "config": {"seed": null}}, "bias_initializer": {"class_name": "Zeros", "config": {}}, "kernel_regularizer": null, "bias_regularizer": null, "activity_regularizer": null, "kernel_constraint": null, "bias_constraint": null}, "name": "conv2d_617", "inbound_nodes": [[["activation_616", 0, 0, {}]]]}, {"class_name": "Conv2D", "config": {"name": "conv2d_622", "trainable": false, "dtype": "float32", "filters": 192, "kernel_size": [1, 7], "strides": [1, 1], "padding": "same", "data_format": "channels_last", "dilation_rate": [1, 1], "groups": 1, "activation": "linear", "use_bias": false, "kernel_initializer": {"class_name": "GlorotUniform", "config": {"seed": null}}, "bias_initializer": {"class_name": "Zeros", "config": {}}, "kernel_regularizer": null, "bias_regularizer": null, "activity_regularizer": null, "kernel_constraint": null, "bias_constraint": null}, "name": "conv2d_622", "inbound_nodes": [[["activation_621", 0, 0, {}]]]}, {"class_name": "Conv2D", "config": {"name": "conv2d_623", "trainable": false, "dtype": "float32", "filters": 192, "kernel_size": [1, 1], "strides": [1, 1], "padding": "same", "data_format": "channels_last", "dilation_rate": [1, 1], "groups": 1, "activation": "linear", "use_bias": false, "kernel_initializer": {"class_name": "GlorotUniform", "config": {"seed": null}}, "bias_initializer": {"class_name": "Zeros", "config": {}}, "kernel_regularizer": null, "bias_regularizer": null, "activity_regularizer": null, "kernel_constraint": null, "bias_constraint": null}, "name": "conv2d_623", "inbound_nodes": [[["average_pooling2d_59", 0, 0, {}]]]}, {"class_name": "BatchNormalization", "config": {"name": "batch_normalization_614", "trainable": false, "dtype": "float32", "axis": [3], "momentum": 0.99, "epsilon": 0.001, "center": true, "scale": false, "beta_initializer": {"class_name": "Zeros", "config": {}}, "gamma_initializer": {"class_name": "Ones", "config": {}}, "moving_mean_initializer": {"class_name": "Zeros", "config": {}}, "moving_variance_initializer": {"class_name": "Ones", "config": {}}, "beta_regularizer": null, "gamma_regularizer": null, "beta_constraint": null, "gamma_constraint": null}, "name": "batch_normalization_614", "inbound_nodes": [[["conv2d_614", 0, 0, {}]]]}, {"class_name": "BatchNormalization", "config": {"name": "batch_normalization_617", "trainable": false, "dtype": "float32", "axis": [3], "momentum": 0.99, "epsilon": 0.001, "center": true, "scale": false, "beta_initializer": {"class_name": "Zeros", "config": {}}, "gamma_initializer": {"class_name": "Ones", "config": {}}, "moving_mean_initializer": {"class_name": "Zeros", "config": {}}, "moving_variance_initializer": {"class_name": "Ones", "config": {}}, "beta_regularizer": null, "gamma_regularizer": null, "beta_constraint": null, "gamma_constraint": null}, "name": "batch_normalization_617", "inbound_nodes": [[["conv2d_617", 0, 0, {}]]]}, {"class_name": "BatchNormalization", "config": {"name": "batch_normalization_622", "trainable": false, "dtype": "float32", "axis": [3], "momentum": 0.99, "epsilon": 0.001, "center": true, "scale": false, "beta_initializer": {"class_name": "Zeros", "config": {}}, "gamma_initializer": {"class_name": "Ones", "config": {}}, "moving_mean_initializer": {"class_name": "Zeros", "config": {}}, "moving_variance_initializer": {"class_name": "Ones", "config": {}}, "beta_regularizer": null, "gamma_regularizer": null, "beta_constraint": null, "gamma_constraint": null}, "name": "batch_normalization_622", "inbound_nodes": [[["conv2d_622", 0, 0, {}]]]}, {"class_name": "BatchNormalization", "config": {"name": "batch_normalization_623", "trainable": false, "dtype": "float32", "axis": [3], "momentum": 0.99, "epsilon": 0.001, "center": true, "scale": false, "beta_initializer": {"class_name": "Zeros", "config": {}}, "gamma_initializer": {"class_name": "Ones", "config": {}}, "moving_mean_initializer": {"class_name": "Zeros", "config": {}}, "moving_variance_initializer": {"class_name": "Ones", "config": {}}, "beta_regularizer": null, "gamma_regularizer": null, "beta_constraint": null, "gamma_constraint": null}, "name": "batch_normalization_623", "inbound_nodes": [[["conv2d_623", 0, 0, {}]]]}, {"class_name": "Activation", "config": {"name": "activation_614", "trainable": false, "dtype": "float32", "activation": "relu"}, "name": "activation_614", "inbound_nodes": [[["batch_normalization_614", 0, 0, {}]]]}, {"class_name": "Activation", "config": {"name": "activation_617", "trainable": false, "dtype": "float32", "activation": "relu"}, "name": "activation_617", "inbound_nodes": [[["batch_normalization_617", 0, 0, {}]]]}, {"class_name": "Activation", "config": {"name": "activation_622", "trainable": false, "dtype": "float32", "activation": "relu"}, "name": "activation_622", "inbound_nodes": [[["batch_normalization_622", 0, 0, {}]]]}, {"class_name": "Activation", "config": {"name": "activation_623", "trainable": false, "dtype": "float32", "activation": "relu"}, "name": "activation_623", "inbound_nodes": [[["batch_normalization_623", 0, 0, {}]]]}, {"class_name": "Concatenate", "config": {"name": "mixed6", "trainable": false, "dtype": "float32", "axis": 3}, "name": "mixed6", "inbound_nodes": [[["activation_614", 0, 0, {}], ["activation_617", 0, 0, {}], ["activation_622", 0, 0, {}], ["activation_623", 0, 0, {}]]]}, {"class_name": "Conv2D", "config": {"name": "conv2d_628", "trainable": false, "dtype": "float32", "filters": 192, "kernel_size": [1, 1], "strides": [1, 1], "padding": "same", "data_format": "channels_last", "dilation_rate": [1, 1], "groups": 1, "activation": "linear", "use_bias": false, "kernel_initializer": {"class_name": "GlorotUniform", "config": {"seed": null}}, "bias_initializer": {"class_name": "Zeros", "config": {}}, "kernel_regularizer": null, "bias_regularizer": null, "activity_regularizer": null, "kernel_constraint": null, "bias_constraint": null}, "name": "conv2d_628", "inbound_nodes": [[["mixed6", 0, 0, {}]]]}, {"class_name": "BatchNormalization", "config": {"name": "batch_normalization_628", "trainable": false, "dtype": "float32", "axis": [3], "momentum": 0.99, "epsilon": 0.001, "center": true, "scale": false, "beta_initializer": {"class_name": "Zeros", "config": {}}, "gamma_initializer": {"class_name": "Ones", "config": {}}, "moving_mean_initializer": {"class_name": "Zeros", "config": {}}, "moving_variance_initializer": {"class_name": "Ones", "config": {}}, "beta_regularizer": null, "gamma_regularizer": null, "beta_constraint": null, "gamma_constraint": null}, "name": "batch_normalization_628", "inbound_nodes": [[["conv2d_628", 0, 0, {}]]]}, {"class_name": "Activation", "config": {"name": "activation_628", "trainable": false, "dtype": "float32", "activation": "relu"}, "name": "activation_628", "inbound_nodes": [[["batch_normalization_628", 0, 0, {}]]]}, {"class_name": "Conv2D", "config": {"name": "conv2d_629", "trainable": false, "dtype": "float32", "filters": 192, "kernel_size": [7, 1], "strides": [1, 1], "padding": "same", "data_format": "channels_last", "dilation_rate": [1, 1], "groups": 1, "activation": "linear", "use_bias": false, "kernel_initializer": {"class_name": "GlorotUniform", "config": {"seed": null}}, "bias_initializer": {"class_name": "Zeros", "config": {}}, "kernel_regularizer": null, "bias_regularizer": null, "activity_regularizer": null, "kernel_constraint": null, "bias_constraint": null}, "name": "conv2d_629", "inbound_nodes": [[["activation_628", 0, 0, {}]]]}, {"class_name": "BatchNormalization", "config": {"name": "batch_normalization_629", "trainable": false, "dtype": "float32", "axis": [3], "momentum": 0.99, "epsilon": 0.001, "center": true, "scale": false, "beta_initializer": {"class_name": "Zeros", "config": {}}, "gamma_initializer": {"class_name": "Ones", "config": {}}, "moving_mean_initializer": {"class_name": "Zeros", "config": {}}, "moving_variance_initializer": {"class_name": "Ones", "config": {}}, "beta_regularizer": null, "gamma_regularizer": null, "beta_constraint": null, "gamma_constraint": null}, "name": "batch_normalization_629", "inbound_nodes": [[["conv2d_629", 0, 0, {}]]]}, {"class_name": "Activation", "config": {"name": "activation_629", "trainable": false, "dtype": "float32", "activation": "relu"}, "name": "activation_629", "inbound_nodes": [[["batch_normalization_629", 0, 0, {}]]]}, {"class_name": "Conv2D", "config": {"name": "conv2d_625", "trainable": false, "dtype": "float32", "filters": 192, "kernel_size": [1, 1], "strides": [1, 1], "padding": "same", "data_format": "channels_last", "dilation_rate": [1, 1], "groups": 1, "activation": "linear", "use_bias": false, "kernel_initializer": {"class_name": "GlorotUniform", "config": {"seed": null}}, "bias_initializer": {"class_name": "Zeros", "config": {}}, "kernel_regularizer": null, "bias_regularizer": null, "activity_regularizer": null, "kernel_constraint": null, "bias_constraint": null}, "name": "conv2d_625", "inbound_nodes": [[["mixed6", 0, 0, {}]]]}, {"class_name": "Conv2D", "config": {"name": "conv2d_630", "trainable": false, "dtype": "float32", "filters": 192, "kernel_size": [1, 7], "strides": [1, 1], "padding": "same", "data_format": "channels_last", "dilation_rate": [1, 1], "groups": 1, "activation": "linear", "use_bias": false, "kernel_initializer": {"class_name": "GlorotUniform", "config": {"seed": null}}, "bias_initializer": {"class_name": "Zeros", "config": {}}, "kernel_regularizer": null, "bias_regularizer": null, "activity_regularizer": null, "kernel_constraint": null, "bias_constraint": null}, "name": "conv2d_630", "inbound_nodes": [[["activation_629", 0, 0, {}]]]}, {"class_name": "BatchNormalization", "config": {"name": "batch_normalization_625", "trainable": false, "dtype": "float32", "axis": [3], "momentum": 0.99, "epsilon": 0.001, "center": true, "scale": false, "beta_initializer": {"class_name": "Zeros", "config": {}}, "gamma_initializer": {"class_name": "Ones", "config": {}}, "moving_mean_initializer": {"class_name": "Zeros", "config": {}}, "moving_variance_initializer": {"class_name": "Ones", "config": {}}, "beta_regularizer": null, "gamma_regularizer": null, "beta_constraint": null, "gamma_constraint": null}, "name": "batch_normalization_625", "inbound_nodes": [[["conv2d_625", 0, 0, {}]]]}, {"class_name": "BatchNormalization", "config": {"name": "batch_normalization_630", "trainable": false, "dtype": "float32", "axis": [3], "momentum": 0.99, "epsilon": 0.001, "center": true, "scale": false, "beta_initializer": {"class_name": "Zeros", "config": {}}, "gamma_initializer": {"class_name": "Ones", "config": {}}, "moving_mean_initializer": {"class_name": "Zeros", "config": {}}, "moving_variance_initializer": {"class_name": "Ones", "config": {}}, "beta_regularizer": null, "gamma_regularizer": null, "beta_constraint": null, "gamma_constraint": null}, "name": "batch_normalization_630", "inbound_nodes": [[["conv2d_630", 0, 0, {}]]]}, {"class_name": "Activation", "config": {"name": "activation_625", "trainable": false, "dtype": "float32", "activation": "relu"}, "name": "activation_625", "inbound_nodes": [[["batch_normalization_625", 0, 0, {}]]]}, {"class_name": "Activation", "config": {"name": "activation_630", "trainable": false, "dtype": "float32", "activation": "relu"}, "name": "activation_630", "inbound_nodes": [[["batch_normalization_630", 0, 0, {}]]]}, {"class_name": "Conv2D", "config": {"name": "conv2d_626", "trainable": false, "dtype": "float32", "filters": 192, "kernel_size": [1, 7], "strides": [1, 1], "padding": "same", "data_format": "channels_last", "dilation_rate": [1, 1], "groups": 1, "activation": "linear", "use_bias": false, "kernel_initializer": {"class_name": "GlorotUniform", "config": {"seed": null}}, "bias_initializer": {"class_name": "Zeros", "config": {}}, "kernel_regularizer": null, "bias_regularizer": null, "activity_regularizer": null, "kernel_constraint": null, "bias_constraint": null}, "name": "conv2d_626", "inbound_nodes": [[["activation_625", 0, 0, {}]]]}, {"class_name": "Conv2D", "config": {"name": "conv2d_631", "trainable": false, "dtype": "float32", "filters": 192, "kernel_size": [7, 1], "strides": [1, 1], "padding": "same", "data_format": "channels_last", "dilation_rate": [1, 1], "groups": 1, "activation": "linear", "use_bias": false, "kernel_initializer": {"class_name": "GlorotUniform", "config": {"seed": null}}, "bias_initializer": {"class_name": "Zeros", "config": {}}, "kernel_regularizer": null, "bias_regularizer": null, "activity_regularizer": null, "kernel_constraint": null, "bias_constraint": null}, "name": "conv2d_631", "inbound_nodes": [[["activation_630", 0, 0, {}]]]}, {"class_name": "BatchNormalization", "config": {"name": "batch_normalization_626", "trainable": false, "dtype": "float32", "axis": [3], "momentum": 0.99, "epsilon": 0.001, "center": true, "scale": false, "beta_initializer": {"class_name": "Zeros", "config": {}}, "gamma_initializer": {"class_name": "Ones", "config": {}}, "moving_mean_initializer": {"class_name": "Zeros", "config": {}}, "moving_variance_initializer": {"class_name": "Ones", "config": {}}, "beta_regularizer": null, "gamma_regularizer": null, "beta_constraint": null, "gamma_constraint": null}, "name": "batch_normalization_626", "inbound_nodes": [[["conv2d_626", 0, 0, {}]]]}, {"class_name": "BatchNormalization", "config": {"name": "batch_normalization_631", "trainable": false, "dtype": "float32", "axis": [3], "momentum": 0.99, "epsilon": 0.001, "center": true, "scale": false, "beta_initializer": {"class_name": "Zeros", "config": {}}, "gamma_initializer": {"class_name": "Ones", "config": {}}, "moving_mean_initializer": {"class_name": "Zeros", "config": {}}, "moving_variance_initializer": {"class_name": "Ones", "config": {}}, "beta_regularizer": null, "gamma_regularizer": null, "beta_constraint": null, "gamma_constraint": null}, "name": "batch_normalization_631", "inbound_nodes": [[["conv2d_631", 0, 0, {}]]]}, {"class_name": "Activation", "config": {"name": "activation_626", "trainable": false, "dtype": "float32", "activation": "relu"}, "name": "activation_626", "inbound_nodes": [[["batch_normalization_626", 0, 0, {}]]]}, {"class_name": "Activation", "config": {"name": "activation_631", "trainable": false, "dtype": "float32", "activation": "relu"}, "name": "activation_631", "inbound_nodes": [[["batch_normalization_631", 0, 0, {}]]]}, {"class_name": "AveragePooling2D", "config": {"name": "average_pooling2d_60", "trainable": false, "dtype": "float32", "pool_size": [3, 3], "padding": "same", "strides": [1, 1], "data_format": "channels_last"}, "name": "average_pooling2d_60", "inbound_nodes": [[["mixed6", 0, 0, {}]]]}, {"class_name": "Conv2D", "config": {"name": "conv2d_624", "trainable": false, "dtype": "float32", "filters": 192, "kernel_size": [1, 1], "strides": [1, 1], "padding": "same", "data_format": "channels_last", "dilation_rate": [1, 1], "groups": 1, "activation": "linear", "use_bias": false, "kernel_initializer": {"class_name": "GlorotUniform", "config": {"seed": null}}, "bias_initializer": {"class_name": "Zeros", "config": {}}, "kernel_regularizer": null, "bias_regularizer": null, "activity_regularizer": null, "kernel_constraint": null, "bias_constraint": null}, "name": "conv2d_624", "inbound_nodes": [[["mixed6", 0, 0, {}]]]}, {"class_name": "Conv2D", "config": {"name": "conv2d_627", "trainable": false, "dtype": "float32", "filters": 192, "kernel_size": [7, 1], "strides": [1, 1], "padding": "same", "data_format": "channels_last", "dilation_rate": [1, 1], "groups": 1, "activation": "linear", "use_bias": false, "kernel_initializer": {"class_name": "GlorotUniform", "config": {"seed": null}}, "bias_initializer": {"class_name": "Zeros", "config": {}}, "kernel_regularizer": null, "bias_regularizer": null, "activity_regularizer": null, "kernel_constraint": null, "bias_constraint": null}, "name": "conv2d_627", "inbound_nodes": [[["activation_626", 0, 0, {}]]]}, {"class_name": "Conv2D", "config": {"name": "conv2d_632", "trainable": false, "dtype": "float32", "filters": 192, "kernel_size": [1, 7], "strides": [1, 1], "padding": "same", "data_format": "channels_last", "dilation_rate": [1, 1], "groups": 1, "activation": "linear", "use_bias": false, "kernel_initializer": {"class_name": "GlorotUniform", "config": {"seed": null}}, "bias_initializer": {"class_name": "Zeros", "config": {}}, "kernel_regularizer": null, "bias_regularizer": null, "activity_regularizer": null, "kernel_constraint": null, "bias_constraint": null}, "name": "conv2d_632", "inbound_nodes": [[["activation_631", 0, 0, {}]]]}, {"class_name": "Conv2D", "config": {"name": "conv2d_633", "trainable": false, "dtype": "float32", "filters": 192, "kernel_size": [1, 1], "strides": [1, 1], "padding": "same", "data_format": "channels_last", "dilation_rate": [1, 1], "groups": 1, "activation": "linear", "use_bias": false, "kernel_initializer": {"class_name": "GlorotUniform", "config": {"seed": null}}, "bias_initializer": {"class_name": "Zeros", "config": {}}, "kernel_regularizer": null, "bias_regularizer": null, "activity_regularizer": null, "kernel_constraint": null, "bias_constraint": null}, "name": "conv2d_633", "inbound_nodes": [[["average_pooling2d_60", 0, 0, {}]]]}, {"class_name": "BatchNormalization", "config": {"name": "batch_normalization_624", "trainable": false, "dtype": "float32", "axis": [3], "momentum": 0.99, "epsilon": 0.001, "center": true, "scale": false, "beta_initializer": {"class_name": "Zeros", "config": {}}, "gamma_initializer": {"class_name": "Ones", "config": {}}, "moving_mean_initializer": {"class_name": "Zeros", "config": {}}, "moving_variance_initializer": {"class_name": "Ones", "config": {}}, "beta_regularizer": null, "gamma_regularizer": null, "beta_constraint": null, "gamma_constraint": null}, "name": "batch_normalization_624", "inbound_nodes": [[["conv2d_624", 0, 0, {}]]]}, {"class_name": "BatchNormalization", "config": {"name": "batch_normalization_627", "trainable": false, "dtype": "float32", "axis": [3], "momentum": 0.99, "epsilon": 0.001, "center": true, "scale": false, "beta_initializer": {"class_name": "Zeros", "config": {}}, "gamma_initializer": {"class_name": "Ones", "config": {}}, "moving_mean_initializer": {"class_name": "Zeros", "config": {}}, "moving_variance_initializer": {"class_name": "Ones", "config": {}}, "beta_regularizer": null, "gamma_regularizer": null, "beta_constraint": null, "gamma_constraint": null}, "name": "batch_normalization_627", "inbound_nodes": [[["conv2d_627", 0, 0, {}]]]}, {"class_name": "BatchNormalization", "config": {"name": "batch_normalization_632", "trainable": false, "dtype": "float32", "axis": [3], "momentum": 0.99, "epsilon": 0.001, "center": true, "scale": false, "beta_initializer": {"class_name": "Zeros", "config": {}}, "gamma_initializer": {"class_name": "Ones", "config": {}}, "moving_mean_initializer": {"class_name": "Zeros", "config": {}}, "moving_variance_initializer": {"class_name": "Ones", "config": {}}, "beta_regularizer": null, "gamma_regularizer": null, "beta_constraint": null, "gamma_constraint": null}, "name": "batch_normalization_632", "inbound_nodes": [[["conv2d_632", 0, 0, {}]]]}, {"class_name": "BatchNormalization", "config": {"name": "batch_normalization_633", "trainable": false, "dtype": "float32", "axis": [3], "momentum": 0.99, "epsilon": 0.001, "center": true, "scale": false, "beta_initializer": {"class_name": "Zeros", "config": {}}, "gamma_initializer": {"class_name": "Ones", "config": {}}, "moving_mean_initializer": {"class_name": "Zeros", "config": {}}, "moving_variance_initializer": {"class_name": "Ones", "config": {}}, "beta_regularizer": null, "gamma_regularizer": null, "beta_constraint": null, "gamma_constraint": null}, "name": "batch_normalization_633", "inbound_nodes": [[["conv2d_633", 0, 0, {}]]]}, {"class_name": "Activation", "config": {"name": "activation_624", "trainable": false, "dtype": "float32", "activation": "relu"}, "name": "activation_624", "inbound_nodes": [[["batch_normalization_624", 0, 0, {}]]]}, {"class_name": "Activation", "config": {"name": "activation_627", "trainable": false, "dtype": "float32", "activation": "relu"}, "name": "activation_627", "inbound_nodes": [[["batch_normalization_627", 0, 0, {}]]]}, {"class_name": "Activation", "config": {"name": "activation_632", "trainable": false, "dtype": "float32", "activation": "relu"}, "name": "activation_632", "inbound_nodes": [[["batch_normalization_632", 0, 0, {}]]]}, {"class_name": "Activation", "config": {"name": "activation_633", "trainable": false, "dtype": "float32", "activation": "relu"}, "name": "activation_633", "inbound_nodes": [[["batch_normalization_633", 0, 0, {}]]]}, {"class_name": "Concatenate", "config": {"name": "mixed7", "trainable": false, "dtype": "float32", "axis": 3}, "name": "mixed7", "inbound_nodes": [[["activation_624", 0, 0, {}], ["activation_627", 0, 0, {}], ["activation_632", 0, 0, {}], ["activation_633", 0, 0, {}]]]}, {"class_name": "Flatten", "config": {"name": "flatten_6", "trainable": true, "dtype": "float32", "data_format": "channels_last"}, "name": "flatten_6", "inbound_nodes": [[["mixed7", 0, 0, {}]]]}, {"class_name": "Dense", "config": {"name": "dense_12", "trainable": true, "dtype": "float32", "units": 1024, "activation": "relu", "use_bias": true, "kernel_initializer": {"class_name": "GlorotUniform", "config": {"seed": null}}, "bias_initializer": {"class_name": "Zeros", "config": {}}, "kernel_regularizer": null, "bias_regularizer": null, "activity_regularizer": null, "kernel_constraint": null, "bias_constraint": null}, "name": "dense_12", "inbound_nodes": [[["flatten_6", 0, 0, {}]]]}, {"class_name": "Dropout", "config": {"name": "dropout_6", "trainable": true, "dtype": "float32", "rate": 0.2, "noise_shape": null, "seed": null}, "name": "dropout_6", "inbound_nodes": [[["dense_12", 0, 0, {}]]]}, {"class_name": "Dense", "config": {"name": "dense_13", "trainable": true, "dtype": "float32", "units": 3, "activation": "softmax", "use_bias": true, "kernel_initializer": {"class_name": "GlorotUniform", "config": {"seed": null}}, "bias_initializer": {"class_name": "Zeros", "config": {}}, "kernel_regularizer": null, "bias_regularizer": null, "activity_regularizer": null, "kernel_constraint": null, "bias_constraint": null}, "name": "dense_13", "inbound_nodes": [[["dropout_6", 0, 0, {}]]]}], "input_layers": [["input_7", 0, 0]], "output_layers": [["dense_13", 0, 0]]}}, "training_config": {"loss": "SparseCategoricalCrossentropy", "metrics": [[{"class_name": "MeanMetricWrapper", "config": {"name": "acc", "dtype": "float32", "fn": "categorical_accuracy"}}]], "weighted_metrics": null, "loss_weights": null, "optimizer_config": {"class_name": "RMSprop", "config": {"name": "RMSprop", "learning_rate": 9.999999747378752e-05, "decay": 0.0, "rho": 0.8999999761581421, "momentum": 0.0, "epsilon": 1e-07, "centered": false}}}}, "weightsManifest": [{"paths": ["group1-shard1of46.bin", "group1-shard2of46.bin", "group1-shard3of46.bin", "group1-shard4of46.bin", "group1-shard5of46.bin", "group1-shard6of46.bin", "group1-shard7of46.bin", "group1-shard8of46.bin", "group1-shard9of46.bin", "group1-shard10of46.bin", "group1-shard11of46.bin", "group1-shard12of46.bin", "group1-shard13of46.bin", "group1-shard14of46.bin", "group1-shard15of46.bin", "group1-shard16of46.bin", "group1-shard17of46.bin", "group1-shard18of46.bin", "group1-shard19of46.bin", "group1-shard20of46.bin", "group1-shard21of46.bin", "group1-shard22of46.bin", "group1-shard23of46.bin", "group1-shard24of46.bin", "group1-shard25of46.bin", "group1-shard26of46.bin", "group1-shard27of46.bin", "group1-shard28of46.bin", "group1-shard29of46.bin", "group1-shard30of46.bin", "group1-shard31of46.bin", "group1-shard32of46.bin", "group1-shard33of46.bin", "group1-shard34of46.bin", "group1-shard35of46.bin", "group1-shard36of46.bin", "group1-shard37of46.bin", "group1-shard38of46.bin", "group1-shard39of46.bin", "group1-shard40of46.bin", "group1-shard41of46.bin", "group1-shard42of46.bin", "group1-shard43of46.bin", "group1-shard44of46.bin", "group1-shard45of46.bin", "group1-shard46of46.bin"], "weights": [{"name": "batch_normalization_564/beta", "shape": [32], "dtype": "float32"}, {"name": "batch_normalization_564/moving_mean", "shape": [32], "dtype": "float32"}, {"name": "batch_normalization_564/moving_variance", "shape": [32], "dtype": "float32"}, {"name": "batch_normalization_565/beta", "shape": [32], "dtype": "float32"}, {"name": "batch_normalization_565/moving_mean", "shape": [32], "dtype": "float32"}, {"name": "batch_normalization_565/moving_variance", "shape": [32], "dtype": "float32"}, {"name": "batch_normalization_566/beta", "shape": [64], "dtype": "float32"}, {"name": "batch_normalization_566/moving_mean", "shape": [64], "dtype": "float32"}, {"name": "batch_normalization_566/moving_variance", "shape": [64], "dtype": "float32"}, {"name": "batch_normalization_567/beta", "shape": [80], "dtype": "float32"}, {"name": "batch_normalization_567/moving_mean", "shape": [80], "dtype": "float32"}, {"name": "batch_normalization_567/moving_variance", "shape": [80], "dtype": "float32"}, {"name": "batch_normalization_568/beta", "shape": [192], "dtype": "float32"}, {"name": "batch_normalization_568/moving_mean", "shape": [192], "dtype": "float32"}, {"name": "batch_normalization_568/moving_variance", "shape": [192], "dtype": "float32"}, {"name": "batch_normalization_569/beta", "shape": [64], "dtype": "float32"}, {"name": "batch_normalization_569/moving_mean", "shape": [64], "dtype": "float32"}, {"name": "batch_normalization_569/moving_variance", "shape": [64], "dtype": "float32"}, {"name": "batch_normalization_570/beta", "shape": [48], "dtype": "float32"}, {"name": "batch_normalization_570/moving_mean", "shape": [48], "dtype": "float32"}, {"name": "batch_normalization_570/moving_variance", "shape": [48], "dtype": "float32"}, {"name": "batch_normalization_571/beta", "shape": [64], "dtype": "float32"}, {"name": "batch_normalization_571/moving_mean", "shape": [64], "dtype": "float32"}, {"name": "batch_normalization_571/moving_variance", "shape": [64], "dtype": "float32"}, {"name": "batch_normalization_572/beta", "shape": [64], "dtype": "float32"}, {"name": "batch_normalization_572/moving_mean", "shape": [64], "dtype": "float32"}, {"name": "batch_normalization_572/moving_variance", "shape": [64], "dtype": "float32"}, {"name": "batch_normalization_573/beta", "shape": [96], "dtype": "float32"}, {"name": "batch_normalization_573/moving_mean", "shape": [96], "dtype": "float32"}, {"name": "batch_normalization_573/moving_variance", "shape": [96], "dtype": "float32"}, {"name": "batch_normalization_574/beta", "shape": [96], "dtype": "float32"}, {"name": "batch_normalization_574/moving_mean", "shape": [96], "dtype": "float32"}, {"name": "batch_normalization_574/moving_variance", "shape": [96], "dtype": "float32"}, {"name": "batch_normalization_575/beta", "shape": [32], "dtype": "float32"}, {"name": "batch_normalization_575/moving_mean", "shape": [32], "dtype": "float32"}, {"name": "batch_normalization_575/moving_variance", "shape": [32], "dtype": "float32"}, {"name": "batch_normalization_576/beta", "shape": [64], "dtype": "float32"}, {"name": "batch_normalization_576/moving_mean", "shape": [64], "dtype": "float32"}, {"name": "batch_normalization_576/moving_variance", "shape": [64], "dtype": "float32"}, {"name": "batch_normalization_577/beta", "shape": [48], "dtype": "float32"}, {"name": "batch_normalization_577/moving_mean", "shape": [48], "dtype": "float32"}, {"name": "batch_normalization_577/moving_variance", "shape": [48], "dtype": "float32"}, {"name": "batch_normalization_578/beta", "shape": [64], "dtype": "float32"}, {"name": "batch_normalization_578/moving_mean", "shape": [64], "dtype": "float32"}, {"name": "batch_normalization_578/moving_variance", "shape": [64], "dtype": "float32"}, {"name": "batch_normalization_579/beta", "shape": [64], "dtype": "float32"}, {"name": "batch_normalization_579/moving_mean", "shape": [64], "dtype": "float32"}, {"name": "batch_normalization_579/moving_variance", "shape": [64], "dtype": "float32"}, {"name": "batch_normalization_580/beta", "shape": [96], "dtype": "float32"}, {"name": "batch_normalization_580/moving_mean", "shape": [96], "dtype": "float32"}, {"name": "batch_normalization_580/moving_variance", "shape": [96], "dtype": "float32"}, {"name": "batch_normalization_581/beta", "shape": [96], "dtype": "float32"}, {"name": "batch_normalization_581/moving_mean", "shape": [96], "dtype": "float32"}, {"name": "batch_normalization_581/moving_variance", "shape": [96], "dtype": "float32"}, {"name": "batch_normalization_582/beta", "shape": [64], "dtype": "float32"}, {"name": "batch_normalization_582/moving_mean", "shape": [64], "dtype": "float32"}, {"name": "batch_normalization_582/moving_variance", "shape": [64], "dtype": "float32"}, {"name": "batch_normalization_583/beta", "shape": [64], "dtype": "float32"}, {"name": "batch_normalization_583/moving_mean", "shape": [64], "dtype": "float32"}, {"name": "batch_normalization_583/moving_variance", "shape": [64], "dtype": "float32"}, {"name": "batch_normalization_584/beta", "shape": [48], "dtype": "float32"}, {"name": "batch_normalization_584/moving_mean", "shape": [48], "dtype": "float32"}, {"name": "batch_normalization_584/moving_variance", "shape": [48], "dtype": "float32"}, {"name": "batch_normalization_585/beta", "shape": [64], "dtype": "float32"}, {"name": "batch_normalization_585/moving_mean", "shape": [64], "dtype": "float32"}, {"name": "batch_normalization_585/moving_variance", "shape": [64], "dtype": "float32"}, {"name": "batch_normalization_586/beta", "shape": [64], "dtype": "float32"}, {"name": "batch_normalization_586/moving_mean", "shape": [64], "dtype": "float32"}, {"name": "batch_normalization_586/moving_variance", "shape": [64], "dtype": "float32"}, {"name": "batch_normalization_587/beta", "shape": [96], "dtype": "float32"}, {"name": "batch_normalization_587/moving_mean", "shape": [96], "dtype": "float32"}, {"name": "batch_normalization_587/moving_variance", "shape": [96], "dtype": "float32"}, {"name": "batch_normalization_588/beta", "shape": [96], "dtype": "float32"}, {"name": "batch_normalization_588/moving_mean", "shape": [96], "dtype": "float32"}, {"name": "batch_normalization_588/moving_variance", "shape": [96], "dtype": "float32"}, {"name": "batch_normalization_589/beta", "shape": [64], "dtype": "float32"}, {"name": "batch_normalization_589/moving_mean", "shape": [64], "dtype": "float32"}, {"name": "batch_normalization_589/moving_variance", "shape": [64], "dtype": "float32"}, {"name": "batch_normalization_590/beta", "shape": [384], "dtype": "float32"}, {"name": "batch_normalization_590/moving_mean", "shape": [384], "dtype": "float32"}, {"name": "batch_normalization_590/moving_variance", "shape": [384], "dtype": "float32"}, {"name": "batch_normalization_591/beta", "shape": [64], "dtype": "float32"}, {"name": "batch_normalization_591/moving_mean", "shape": [64], "dtype": "float32"}, {"name": "batch_normalization_591/moving_variance", "shape": [64], "dtype": "float32"}, {"name": "batch_normalization_592/beta", "shape": [96], "dtype": "float32"}, {"name": "batch_normalization_592/moving_mean", "shape": [96], "dtype": "float32"}, {"name": "batch_normalization_592/moving_variance", "shape": [96], "dtype": "float32"}, {"name": "batch_normalization_593/beta", "shape": [96], "dtype": "float32"}, {"name": "batch_normalization_593/moving_mean", "shape": [96], "dtype": "float32"}, {"name": "batch_normalization_593/moving_variance", "shape": [96], "dtype": "float32"}, {"name": "batch_normalization_594/beta", "shape": [192], "dtype": "float32"}, {"name": "batch_normalization_594/moving_mean", "shape": [192], "dtype": "float32"}, {"name": "batch_normalization_594/moving_variance", "shape": [192], "dtype": "float32"}, {"name": "batch_normalization_595/beta", "shape": [128], "dtype": "float32"}, {"name": "batch_normalization_595/moving_mean", "shape": [128], "dtype": "float32"}, {"name": "batch_normalization_595/moving_variance", "shape": [128], "dtype": "float32"}, {"name": "batch_normalization_596/beta", "shape": [128], "dtype": "float32"}, {"name": "batch_normalization_596/moving_mean", "shape": [128], "dtype": "float32"}, {"name": "batch_normalization_596/moving_variance", "shape": [128], "dtype": "float32"}, {"name": "batch_normalization_597/beta", "shape": [192], "dtype": "float32"}, {"name": "batch_normalization_597/moving_mean", "shape": [192], "dtype": "float32"}, {"name": "batch_normalization_597/moving_variance", "shape": [192], "dtype": "float32"}, {"name": "batch_normalization_598/beta", "shape": [128], "dtype": "float32"}, {"name": "batch_normalization_598/moving_mean", "shape": [128], "dtype": "float32"}, {"name": "batch_normalization_598/moving_variance", "shape": [128], "dtype": "float32"}, {"name": "batch_normalization_599/beta", "shape": [128], "dtype": "float32"}, {"name": "batch_normalization_599/moving_mean", "shape": [128], "dtype": "float32"}, {"name": "batch_normalization_599/moving_variance", "shape": [128], "dtype": "float32"}, {"name": "batch_normalization_600/beta", "shape": [128], "dtype": "float32"}, {"name": "batch_normalization_600/moving_mean", "shape": [128], "dtype": "float32"}, {"name": "batch_normalization_600/moving_variance", "shape": [128], "dtype": "float32"}, {"name": "batch_normalization_601/beta", "shape": [128], "dtype": "float32"}, {"name": "batch_normalization_601/moving_mean", "shape": [128], "dtype": "float32"}, {"name": "batch_normalization_601/moving_variance", "shape": [128], "dtype": "float32"}, {"name": "batch_normalization_602/beta", "shape": [192], "dtype": "float32"}, {"name": "batch_normalization_602/moving_mean", "shape": [192], "dtype": "float32"}, {"name": "batch_normalization_602/moving_variance", "shape": [192], "dtype": "float32"}, {"name": "batch_normalization_603/beta", "shape": [192], "dtype": "float32"}, {"name": "batch_normalization_603/moving_mean", "shape": [192], "dtype": "float32"}, {"name": "batch_normalization_603/moving_variance", "shape": [192], "dtype": "float32"}, {"name": "batch_normalization_604/beta", "shape": [192], "dtype": "float32"}, {"name": "batch_normalization_604/moving_mean", "shape": [192], "dtype": "float32"}, {"name": "batch_normalization_604/moving_variance", "shape": [192], "dtype": "float32"}, {"name": "batch_normalization_605/beta", "shape": [160], "dtype": "float32"}, {"name": "batch_normalization_605/moving_mean", "shape": [160], "dtype": "float32"}, {"name": "batch_normalization_605/moving_variance", "shape": [160], "dtype": "float32"}, {"name": "batch_normalization_606/beta", "shape": [160], "dtype": "float32"}, {"name": "batch_normalization_606/moving_mean", "shape": [160], "dtype": "float32"}, {"name": "batch_normalization_606/moving_variance", "shape": [160], "dtype": "float32"}, {"name": "batch_normalization_607/beta", "shape": [192], "dtype": "float32"}, {"name": "batch_normalization_607/moving_mean", "shape": [192], "dtype": "float32"}, {"name": "batch_normalization_607/moving_variance", "shape": [192], "dtype": "float32"}, {"name": "batch_normalization_608/beta", "shape": [160], "dtype": "float32"}, {"name": "batch_normalization_608/moving_mean", "shape": [160], "dtype": "float32"}, {"name": "batch_normalization_608/moving_variance", "shape": [160], "dtype": "float32"}, {"name": "batch_normalization_609/beta", "shape": [160], "dtype": "float32"}, {"name": "batch_normalization_609/moving_mean", "shape": [160], "dtype": "float32"}, {"name": "batch_normalization_609/moving_variance", "shape": [160], "dtype": "float32"}, {"name": "batch_normalization_610/beta", "shape": [160], "dtype": "float32"}, {"name": "batch_normalization_610/moving_mean", "shape": [160], "dtype": "float32"}, {"name": "batch_normalization_610/moving_variance", "shape": [160], "dtype": "float32"}, {"name": "batch_normalization_611/beta", "shape": [160], "dtype": "float32"}, {"name": "batch_normalization_611/moving_mean", "shape": [160], "dtype": "float32"}, {"name": "batch_normalization_611/moving_variance", "shape": [160], "dtype": "float32"}, {"name": "batch_normalization_612/beta", "shape": [192], "dtype": "float32"}, {"name": "batch_normalization_612/moving_mean", "shape": [192], "dtype": "float32"}, {"name": "batch_normalization_612/moving_variance", "shape": [192], "dtype": "float32"}, {"name": "batch_normalization_613/beta", "shape": [192], "dtype": "float32"}, {"name": "batch_normalization_613/moving_mean", "shape": [192], "dtype": "float32"}, {"name": "batch_normalization_613/moving_variance", "shape": [192], "dtype": "float32"}, {"name": "batch_normalization_614/beta", "shape": [192], "dtype": "float32"}, {"name": "batch_normalization_614/moving_mean", "shape": [192], "dtype": "float32"}, {"name": "batch_normalization_614/moving_variance", "shape": [192], "dtype": "float32"}, {"name": "batch_normalization_615/beta", "shape": [160], "dtype": "float32"}, {"name": "batch_normalization_615/moving_mean", "shape": [160], "dtype": "float32"}, {"name": "batch_normalization_615/moving_variance", "shape": [160], "dtype": "float32"}, {"name": "batch_normalization_616/beta", "shape": [160], "dtype": "float32"}, {"name": "batch_normalization_616/moving_mean", "shape": [160], "dtype": "float32"}, {"name": "batch_normalization_616/moving_variance", "shape": [160], "dtype": "float32"}, {"name": "batch_normalization_617/beta", "shape": [192], "dtype": "float32"}, {"name": "batch_normalization_617/moving_mean", "shape": [192], "dtype": "float32"}, {"name": "batch_normalization_617/moving_variance", "shape": [192], "dtype": "float32"}, {"name": "batch_normalization_618/beta", "shape": [160], "dtype": "float32"}, {"name": "batch_normalization_618/moving_mean", "shape": [160], "dtype": "float32"}, {"name": "batch_normalization_618/moving_variance", "shape": [160], "dtype": "float32"}, {"name": "batch_normalization_619/beta", "shape": [160], "dtype": "float32"}, {"name": "batch_normalization_619/moving_mean", "shape": [160], "dtype": "float32"}, {"name": "batch_normalization_619/moving_variance", "shape": [160], "dtype": "float32"}, {"name": "batch_normalization_620/beta", "shape": [160], "dtype": "float32"}, {"name": "batch_normalization_620/moving_mean", "shape": [160], "dtype": "float32"}, {"name": "batch_normalization_620/moving_variance", "shape": [160], "dtype": "float32"}, {"name": "batch_normalization_621/beta", "shape": [160], "dtype": "float32"}, {"name": "batch_normalization_621/moving_mean", "shape": [160], "dtype": "float32"}, {"name": "batch_normalization_621/moving_variance", "shape": [160], "dtype": "float32"}, {"name": "batch_normalization_622/beta", "shape": [192], "dtype": "float32"}, {"name": "batch_normalization_622/moving_mean", "shape": [192], "dtype": "float32"}, {"name": "batch_normalization_622/moving_variance", "shape": [192], "dtype": "float32"}, {"name": "batch_normalization_623/beta", "shape": [192], "dtype": "float32"}, {"name": "batch_normalization_623/moving_mean", "shape": [192], "dtype": "float32"}, {"name": "batch_normalization_623/moving_variance", "shape": [192], "dtype": "float32"}, {"name": "batch_normalization_624/beta", "shape": [192], "dtype": "float32"}, {"name": "batch_normalization_624/moving_mean", "shape": [192], "dtype": "float32"}, {"name": "batch_normalization_624/moving_variance", "shape": [192], "dtype": "float32"}, {"name": "batch_normalization_625/beta", "shape": [192], "dtype": "float32"}, {"name": "batch_normalization_625/moving_mean", "shape": [192], "dtype": "float32"}, {"name": "batch_normalization_625/moving_variance", "shape": [192], "dtype": "float32"}, {"name": "batch_normalization_626/beta", "shape": [192], "dtype": "float32"}, {"name": "batch_normalization_626/moving_mean", "shape": [192], "dtype": "float32"}, {"name": "batch_normalization_626/moving_variance", "shape": [192], "dtype": "float32"}, {"name": "batch_normalization_627/beta", "shape": [192], "dtype": "float32"}, {"name": "batch_normalization_627/moving_mean", "shape": [192], "dtype": "float32"}, {"name": "batch_normalization_627/moving_variance", "shape": [192], "dtype": "float32"}, {"name": "batch_normalization_628/beta", "shape": [192], "dtype": "float32"}, {"name": "batch_normalization_628/moving_mean", "shape": [192], "dtype": "float32"}, {"name": "batch_normalization_628/moving_variance", "shape": [192], "dtype": "float32"}, {"name": "batch_normalization_629/beta", "shape": [192], "dtype": "float32"}, {"name": "batch_normalization_629/moving_mean", "shape": [192], "dtype": "float32"}, {"name": "batch_normalization_629/moving_variance", "shape": [192], "dtype": "float32"}, {"name": "batch_normalization_630/beta", "shape": [192], "dtype": "float32"}, {"name": "batch_normalization_630/moving_mean", "shape": [192], "dtype": "float32"}, {"name": "batch_normalization_630/moving_variance", "shape": [192], "dtype": "float32"}, {"name": "batch_normalization_631/beta", "shape": [192], "dtype": "float32"}, {"name": "batch_normalization_631/moving_mean", "shape": [192], "dtype": "float32"}, {"name": "batch_normalization_631/moving_variance", "shape": [192], "dtype": "float32"}, {"name": "batch_normalization_632/beta", "shape": [192], "dtype": "float32"}, {"name": "batch_normalization_632/moving_mean", "shape": [192], "dtype": "float32"}, {"name": "batch_normalization_632/moving_variance", "shape": [192], "dtype": "float32"}, {"name": "batch_normalization_633/beta", "shape": [192], "dtype": "float32"}, {"name": "batch_normalization_633/moving_mean", "shape": [192], "dtype": "float32"}, {"name": "batch_normalization_633/moving_variance", "shape": [192], "dtype": "float32"}, {"name": "conv2d_564/kernel", "shape": [3, 3, 3, 32], "dtype": "float32"}, {"name": "conv2d_565/kernel", "shape": [3, 3, 32, 32], "dtype": "float32"}, {"name": "conv2d_566/kernel", "shape": [3, 3, 32, 64], "dtype": "float32"}, {"name": "conv2d_567/kernel", "shape": [1, 1, 64, 80], "dtype": "float32"}, {"name": "conv2d_568/kernel", "shape": [3, 3, 80, 192], "dtype": "float32"}, {"name": "conv2d_569/kernel", "shape": [1, 1, 192, 64], "dtype": "float32"}, {"name": "conv2d_570/kernel", "shape": [1, 1, 192, 48], "dtype": "float32"}, {"name": "conv2d_571/kernel", "shape": [5, 5, 48, 64], "dtype": "float32"}, {"name": "conv2d_572/kernel", "shape": [1, 1, 192, 64], "dtype": "float32"}, {"name": "conv2d_573/kernel", "shape": [3, 3, 64, 96], "dtype": "float32"}, {"name": "conv2d_574/kernel", "shape": [3, 3, 96, 96], "dtype": "float32"}, {"name": "conv2d_575/kernel", "shape": [1, 1, 192, 32], "dtype": "float32"}, {"name": "conv2d_576/kernel", "shape": [1, 1, 256, 64], "dtype": "float32"}, {"name": "conv2d_577/kernel", "shape": [1, 1, 256, 48], "dtype": "float32"}, {"name": "conv2d_578/kernel", "shape": [5, 5, 48, 64], "dtype": "float32"}, {"name": "conv2d_579/kernel", "shape": [1, 1, 256, 64], "dtype": "float32"}, {"name": "conv2d_580/kernel", "shape": [3, 3, 64, 96], "dtype": "float32"}, {"name": "conv2d_581/kernel", "shape": [3, 3, 96, 96], "dtype": "float32"}, {"name": "conv2d_582/kernel", "shape": [1, 1, 256, 64], "dtype": "float32"}, {"name": "conv2d_583/kernel", "shape": [1, 1, 288, 64], "dtype": "float32"}, {"name": "conv2d_584/kernel", "shape": [1, 1, 288, 48], "dtype": "float32"}, {"name": "conv2d_585/kernel", "shape": [5, 5, 48, 64], "dtype": "float32"}, {"name": "conv2d_586/kernel", "shape": [1, 1, 288, 64], "dtype": "float32"}, {"name": "conv2d_587/kernel", "shape": [3, 3, 64, 96], "dtype": "float32"}, {"name": "conv2d_588/kernel", "shape": [3, 3, 96, 96], "dtype": "float32"}, {"name": "conv2d_589/kernel", "shape": [1, 1, 288, 64], "dtype": "float32"}, {"name": "conv2d_590/kernel", "shape": [3, 3, 288, 384], "dtype": "float32"}, {"name": "conv2d_591/kernel", "shape": [1, 1, 288, 64], "dtype": "float32"}, {"name": "conv2d_592/kernel", "shape": [3, 3, 64, 96], "dtype": "float32"}, {"name": "conv2d_593/kernel", "shape": [3, 3, 96, 96], "dtype": "float32"}, {"name": "conv2d_594/kernel", "shape": [1, 1, 768, 192], "dtype": "float32"}, {"name": "conv2d_595/kernel", "shape": [1, 1, 768, 128], "dtype": "float32"}, {"name": "conv2d_596/kernel", "shape": [1, 7, 128, 128], "dtype": "float32"}, {"name": "conv2d_597/kernel", "shape": [7, 1, 128, 192], "dtype": "float32"}, {"name": "conv2d_598/kernel", "shape": [1, 1, 768, 128], "dtype": "float32"}, {"name": "conv2d_599/kernel", "shape": [7, 1, 128, 128], "dtype": "float32"}, {"name": "conv2d_600/kernel", "shape": [1, 7, 128, 128], "dtype": "float32"}, {"name": "conv2d_601/kernel", "shape": [7, 1, 128, 128], "dtype": "float32"}, {"name": "conv2d_602/kernel", "shape": [1, 7, 128, 192], "dtype": "float32"}, {"name": "conv2d_603/kernel", "shape": [1, 1, 768, 192], "dtype": "float32"}, {"name": "conv2d_604/kernel", "shape": [1, 1, 768, 192], "dtype": "float32"}, {"name": "conv2d_605/kernel", "shape": [1, 1, 768, 160], "dtype": "float32"}, {"name": "conv2d_606/kernel", "shape": [1, 7, 160, 160], "dtype": "float32"}, {"name": "conv2d_607/kernel", "shape": [7, 1, 160, 192], "dtype": "float32"}, {"name": "conv2d_608/kernel", "shape": [1, 1, 768, 160], "dtype": "float32"}, {"name": "conv2d_609/kernel", "shape": [7, 1, 160, 160], "dtype": "float32"}, {"name": "conv2d_610/kernel", "shape": [1, 7, 160, 160], "dtype": "float32"}, {"name": "conv2d_611/kernel", "shape": [7, 1, 160, 160], "dtype": "float32"}, {"name": "conv2d_612/kernel", "shape": [1, 7, 160, 192], "dtype": "float32"}, {"name": "conv2d_613/kernel", "shape": [1, 1, 768, 192], "dtype": "float32"}, {"name": "conv2d_614/kernel", "shape": [1, 1, 768, 192], "dtype": "float32"}, {"name": "conv2d_615/kernel", "shape": [1, 1, 768, 160], "dtype": "float32"}, {"name": "conv2d_616/kernel", "shape": [1, 7, 160, 160], "dtype": "float32"}, {"name": "conv2d_617/kernel", "shape": [7, 1, 160, 192], "dtype": "float32"}, {"name": "conv2d_618/kernel", "shape": [1, 1, 768, 160], "dtype": "float32"}, {"name": "conv2d_619/kernel", "shape": [7, 1, 160, 160], "dtype": "float32"}, {"name": "conv2d_620/kernel", "shape": [1, 7, 160, 160], "dtype": "float32"}, {"name": "conv2d_621/kernel", "shape": [7, 1, 160, 160], "dtype": "float32"}, {"name": "conv2d_622/kernel", "shape": [1, 7, 160, 192], "dtype": "float32"}, {"name": "conv2d_623/kernel", "shape": [1, 1, 768, 192], "dtype": "float32"}, {"name": "conv2d_624/kernel", "shape": [1, 1, 768, 192], "dtype": "float32"}, {"name": "conv2d_625/kernel", "shape": [1, 1, 768, 192], "dtype": "float32"}, {"name": "conv2d_626/kernel", "shape": [1, 7, 192, 192], "dtype": "float32"}, {"name": "conv2d_627/kernel", "shape": [7, 1, 192, 192], "dtype": "float32"}, {"name": "conv2d_628/kernel", "shape": [1, 1, 768, 192], "dtype": "float32"}, {"name": "conv2d_629/kernel", "shape": [7, 1, 192, 192], "dtype": "float32"}, {"name": "conv2d_630/kernel", "shape": [1, 7, 192, 192], "dtype": "float32"}, {"name": "conv2d_631/kernel", "shape": [7, 1, 192, 192], "dtype": "float32"}, {"name": "conv2d_632/kernel", "shape": [1, 7, 192, 192], "dtype": "float32"}, {"name": "conv2d_633/kernel", "shape": [1, 1, 768, 192], "dtype": "float32"}, {"name": "dense_12/kernel", "shape": [37632, 1024], "dtype": "float32"}, {"name": "dense_12/bias", "shape": [1024], "dtype": "float32"}, {"name": "dense_13/kernel", "shape": [1024, 3], "dtype": "float32"}, {"name": "dense_13/bias", "shape": [3], "dtype": "float32"}]}]}